CSNet/checkpoints/csnet-L-x1/csnet-L-x1.pth.tar (torch_old, 550405 bytes, 632 tensors)

stage0.0.conv1x1.conv.weight f4 [18, 3, 3, 3]
0.003874402 -0.0046678027 0.010676432 0.007853813 0.021875983 0.005187636 -0.015913665 -0.0077839554
-0.017766891 0.008931103 0.019381244 0.023010718 0.004924413 0.026009819 0.01923942 0.012380882
0.00886747 0.011787913 0.0073766005 0.015798733 0.0016526596 0.019790763 0.02669579 0.010672956
0.0070407316 0.01522427 0.011596223 -0.01853471 -0.010888216 -0.026636908 -0.004660436 -0.0023350297
-0.007403161 -0.023101885 -0.006051956 -0.0036890334 -0.016615901 -0.001285546 -0.04224908 -0.017450389
-0.0008678097 -0.007963563 -0.036243703 0.0068833134 -0.013904816 0.028405534 0.014631211 0.04522652
0.0037766595 0.008898453 0.018929454 0.043484595 0.014138143 0.0036223659 0.02312046 0.008326432
-0.023999607 -0.017020872 0.005148375 -0.024753438 -0.017082404 -0.02702298 -0.0157502 0.02311673
-0.019171068 0.030189231 0.007545025 0.013390751 -0.008756667 -0.0033751486 -0.025240224 0.0014523662
-0.018305335 -0.003692823 -0.00088399154 -0.008565213 0.0060193604 -0.002770873 -0.019015225 -0.029805569
-0.020830285 -0.0008351777 0.0067659477 -0.03766708 -0.01772317 -0.01728492 0.005423146 -0.005869474
0.010205675 0.013742392 -0.007646145 -0.005309961 -0.03234635 0.004127315 -0.021625761 -0.021306165
0.004499302 0.018788451 0.035269856 0.008096567 0.008897374 -0.034125727 0.023165053 0.0038200028
-0.015384756 -0.0040456927 0.010213682 0.02344532 -0.0051141013 -0.006560881 0.013413847 -0.0117448615
-0.0066987467 0.00087112695 -0.0049756183 -0.008271409 0.0028267913 -0.014574619 -0.008414802 -0.004911579
-0.021195658 -0.019946247 -0.012624572 -0.0073267766 -0.01204382 -0.0117705725 0.006994914 0.0097265
-0.0009159413 -0.013513562 -0.009733261 0.019763362 0.011947118 -0.0023779436 -0.007091259 0.048816156
-0.055708606 0.058491442 0.04718171 -0.033667363 -0.044368006 -0.05156434 0.104554296 0.04726181
-0.09199994 -0.081271656 0.03013261 -0.051763654 -0.035678044 -0.08571757 0.071855485 -0.07952091
-0.009071513 0.07731275 0.018158004 -0.010608446 -0.039245162 0.08071339 0.076991305 -0.016807534
0.0071738106 0.036568988 0.006644102 0.001709049 0.0030449256 -0.0015939459 0.0035643645 -0.06623033
0.0029876227 0.009281666 -0.015037423 -0.00093100424 0.015045298 0.020959057 0.02094981 0.0040068887
-0.0964425 -0.006617039 0.030124381 -0.021359803 -0.0012539318 0.013016889 0.007421641 0.003356492
-0.0032085197 -0.016181966 -0.0077783805 0.0031276029 0.00033262614 0.062152762 -0.055578314 0.061649706
0.06260595 0.07086585 0.035665248 -0.004456175 -0.013609639 0.08300841 -0.08597867 0.05044146
0.034468535 -0.090790644 -0.07801363 -0.023488982 -0.050554857 0.02397881 -0.02439411 -0.005562057
0.026724078 -0.06912537 -0.024454257 -0.043539092 0.039459918 0.0069221547 -0.01478384 -0.04245751
-0.026309194 0.02858027 -0.037816424 0.0065921526 -0.02458291 -0.046164814 -0.039552256 -0.015590235
-0.060041808 0.022239568 -0.00794492 -0.00966053 0.01692224 0.045268152 0.01765444 0.054019205
0.030628772 0.063975655 -0.009695004 0.018227665 0.010867927 -0.028338779 -0.020611903 0.019317726
-0.022797842 -0.031349715 0.00348708 -0.003887297 0.008802092 -0.006823823 -0.01723909 -0.04632611
-0.02197513 -0.013622339 -0.03678226 -0.038142003 0.007793029 0.006989092 0.00053216756 -0.00516622
00000000: aee9 7d3b 5ef4 98bb 34ec 2e3c 47ad 003c
00000010: 4335 b33c 0bfd a93b 605d 82bc 8d10 ffbb
00000020: df8b 91bc c353 123c 6ac5 9e3c f980 bc3c
00000030: f85c a13b 8b12 d53c fd9b 9d3c 2fd9 4a3c
00000040: dd48 113c 1722 413c 69b7 f13b 586c 813c
00000050: 0e9e d83a 3d20 a23c 21b1 da3c 9fdd 2e3c
00000060: f0b5 e63b 376f 793c 16fe 3d3c 1bd6 97bc
00000070: 7d64 32bc a535 dabc 92b6 98bb 4c07 19bb
00000080: 3796 f2bb 2a40 bdbc 7d4f c6bb b6c3 71bb
00000090: 121e 88bc c47f a8ba 5f0d 2dbd 1ef4 8ebc
000000a0: b97d 63ba 9b79 02bc 4774 14bd 6b8d e13b
000000b0: 06d1 63bc b9b2 e83c bfb7 6f3c 723f 393d
000000c0: d581 773b d1ca 113c f111 9b3c e71c 323d
000000d0: aba3 673c 3765 6d3b 1e67 bd3c 966b 083c
000000e0: d39a c4bc 5b6f 8bbc b3b3 a83b b9c7 cabc
000000f0: 66f0 8bbc 4c5f ddbc 9006 81bc 4c5f bd3c
00000100: a50c 9dbc 684f f73c 423c f73b e164 5b3c
00000110: 2078 0fbc 9931 5dbb 96c4 cebc 535d be3a
00000120: 12f5 95bc 4a03 72bb abbb 67ba 1b55 0cbc
00000130: 0e3e c53b 8997 35bb d1c5 9bbc cf2a f4bc
00000140: 46a4 aabc d4ef 5aba e2b4 dd3b cc48 1abd
00000150: 2e30 91bc 1b99 8dbc a5b4 b13b b754 c0bb
00000160: b435 273c c527 613c 838c fabb 2eff adbb
00000170: 9b7d 04bd 6d3e 873b 8228 b1bc 448a aebc
00000180: e16e 933b 3dea 993c 2077 103d 77a7 043c
00000190: 4bc6 113c 6bc7 0bbd a3c4 bd3c 0359 7a3b
000001a0: 5810 7cbc bb91 84bb 4a57 273c 6610 c03c
000001b0: 3194 a7bb a9fc d6bb c1c5 5b3c 856d 40bc
000001c0: 2981 dbbb 575c 643a 830a a3bb ce84 07bc
000001d0: b041 393b 62ca 6ebc 3dde 09bc 50f1 a0bb
000001e0: 84a2 adbc 5066 a3bc 4bd7 4ebc 7515 f0bb
000001f0: 7153 45bc 5cd9 40bc 9735 e53b e65b 1f3c
00000200: c81b 70ba fd67 5dbc 4178 1fbc c6e6 a13c
00000210: d8bd 433c 46d7 1bbb cb5d e8bb 73f3 473d
00000220: b52e 64bd b994 6f3d 9c41 413d cae6 09bd
00000230: 3abb 35bd 2135 53bd 9020 d63d 9a95 413d
00000240: 776a bcbd c171 a6bd aad8 f63c 2006 54bd
00000250: 2423 12bd b18c afbd f828 933d dcdb a2bd
00000260: afa0 14bc 2656 9e3d 18c0 943c 0ccf 2dbc
00000270: 89bf 20bd 104d a53d 9ead 9d3d f4af 89bc
00000280: 4912 eb3b 5dc9 153d c4b6 d93b 2b02 e03a
00000290: 608d 473b f3eb d0ba 1d98 693b c4a3 87bd
000002a0: fecb 433b 2112 183c 865f 76bc a30e 74ba
000002b0: 8e80 763c 54b2 ab3c f09e ab3c 384c 833b
000002c0: a583 c5bd bfd3 d8bb 68c7 f63c c1fa aebc
000002d0: f85a a4ba ca44 553c 3d31 f33b 97f8 5b3b
000002e0: 0746 52bb 0b90 84bc c9e1 febb 78f8 4c3b
000002f0: 5364 ae39 e593 7e3d 16a6 63bd 6784 7c3d
00000300: 8c37 803d 1d22 913d b915 123d 1b05 92bb
00000310: f7fa 5ebc 5000 aa3d 9615 b0bd b49b 4e3d
00000320: e12e 0d3d 72f0 b9bd 9cc5 9fbd f76b c0bc
00000330: 9c12 4fbd 366f c43c 28d6 c7bc ea41 b6bb
00000340: 74ec da3c 9a91 8dbd 4b54 c8bc 0c56 32bd
00000350: b9a0 213d 3ed3 e23b eb37 72bc ede7 2dbd
00000360: 6186 d7bc 2c21 ea3c 65e5 1abd fc02 d83b
00000370: 1962 c9bc 5117 3dbd 8c01 22bd 2f6e 7fbc
00000380: 66ee 75bd c12f b63c 692b 02bc 3347 1ebc
00000390: 82a0 8a3c 196b 393d 0ba0 903c 3e43 5d3d
000003a0: 31e9 fa3c ab05 833d cbd7 1ebc 2f52 953c
000003b0: 640f 323c ba26 e8bc 4bda a8bc 3540 9e3c
000003c0: 8ac2 babc 8f68 00bd 7f87 643b 05c2 7ebb
000003d0: a636 103c 609a dfbb fe38 8dbc 72c0 3dbd
000003e0: 3005 b4bc 3b30 5fbc ffa8 16bd ca3a 1cbd
000003f0: aa5c ff3b c104 e53b 2981 0b3a 6549 a9bb

stage0.0.conv1x1.bns.0.weight f4 [8]
0.006873061 0.008538816 0.00944922 0.0063659335 0.011097122 0.0039981874 0.0058508622 0.0028058502
00000000: 6a37 e13b 64e6 0b3c e7d0 1a3c 5299 d03b
00000010: b4d0 353c 3a03 833b 97b8 bf3b 5be2 373b

stage0.0.conv1x1.bns.0.bias f4 [8]
0.015343704 0.022536218 0.013971062 0.016582647 0.0053944956 -0.029340986 0.02049951 0.016946694
00000000: 2964 7b3c e09d b83c e2e6 643c 55d8 873c
00000010: 4fc4 b03b 825c f0bc 97ee a73c cbd3 8a3c

stage0.0.conv1x1.bns.0.running_mean f4 [8]
-0.0026727556 -0.012582702 0.00070786464 -0.0030002818 -0.0029648084 -0.0084847445 -0.0025193566 0.013481373
00000000: 6629 2fbb ad27 4ebc fe8f 393a 60a0 44bb
00000010: 3b4d 42bb 9903 0bbc ca1b 25bb fae0 5c3c

stage0.0.conv1x1.bns.0.running_var f4 [8]
0.08473518 0.019753989 0.035797227 0.005281394 0.020591661 0.02261773 0.013341624 0.052622493
00000000: a389 ad3d 1ed3 a13c 1da0 123d 8b0f ad3b
00000010: d8af a83c d148 b93c d496 5a3c af8a 573d

stage0.0.conv1x1.bns.1.weight f4 [10]
0.0088912845 0.0024102505 0.0075450586 0.006254442 0.012086487 0.004793154 0.002276517 0.009822943
0.007778774 0.016673712
00000000: c0ac 113c 4bf5 1d3b 8a3c f73b 10f2 cc3b
00000010: 6706 463c e40f 9d3b 9e31 153b 69f0 203c
00000020: 16e5 fe3b 4f97 883c

stage0.0.conv1x1.bns.1.bias f4 [10]
0.015869444 0.016039355 0.012463882 0.016838072 0.0035791795 0.014573087 0.010530468 0.006278468
-6.603061e-05 -0.00076197035
00000000: a300 823c f764 833c 4f35 4c3c ffef 893c
00000010: ab90 6a3b f5c3 6e3c fc87 2c3c 9bbb cd3b
00000020: ea79 8ab8 f7be 47ba

stage0.0.conv1x1.bns.1.running_mean f4 [10]
-0.009062714 -0.0060386895 -0.018343335 0.0050551184 -0.0003868311 -0.0038524012 -0.00047139137 -0.01438436
0.002045463 0.00024941406
00000000: c77b 14bc 33e0 c5bb c344 96bc 68a5 a53b
00000010: 97cf cab9 9178 7cbb 1425 f7b9 61ac 6bbc
00000020: 2d0d 063b cac3 8239

stage0.0.conv1x1.bns.1.running_var f4 [10]
0.014925831 0.02071618 0.0138401855 0.021177622 0.0018315226 0.0065242504 0.008426198 0.017664153
0.0015478415 0.023920177
00000000: 798b 743c fab4 a93c f2c1 623c b17c ad3c
00000010: b30f f03a 61c9 d53b 090e 0a3c 6ab4 903c
00000020: f1e0 ca3a 3ff4 c33c

stage0.0.conv1x1.prelus.0.weight f4 [8]
2.3901885e-09 0.0026300892 0.0012176718 -0.00028096314 -0.010082231 0.03868282 8.648865e-05 2.9636494e-06
00000000: a440 2431 935d 2c3b 499a 9f3a 3c4e 93b9
00000010: f12f 25bc e071 1e3d 3e61 b538 1ce3 4636

stage0.0.conv1x1.prelus.1.weight f4 [10]
6.2113955e-05 -1.11436225e-11 0.0013572973 -4.7153695e-05 -0.0018456982 0.0012829098 1.7141205e-05 -0.0009593583
-0.0008156252 -0.012663354
00000000: 2d43 8238 6a0a 44ad 57e7 b13a e5c6 45b8
00000010: 5beb f1ba 4f27 a83a 75ca 8f37 727d 7bba
00000020: aecf 55ba f579 4fbc

stage0.0.conv3x3_1.convs.0.weight f4 [8, 1, 3, 3]
-0.03531201 0.09071828 0.071103446 0.17092584 -0.02733202 -0.24923828 0.16684055 -0.03859706
-0.1506788 -0.13946338 0.12552561 0.15178059 -0.047779806 -0.01905178 0.0038378052 -0.08956476
-0.103454106 0.121591665 0.054232575 0.008176067 -0.06961027 0.025896799 -0.028844187 0.035199184
0.044655908 0.038309887 0.017252669 -0.009524883 0.028644523 -0.002223763 0.05388642 -0.012718786
0.05537138 -0.022588434 -0.032553036 -0.000825146 -0.012449165 -0.013466078 -0.0012199448 0.019055659
0.0062093064 0.0014206339 0.011226597 0.0186797 0.0013734031 -0.02935848 -0.040381197 -0.026444977
-0.051147982 0.019485604 -0.0014641145 0.00650355 -0.031258613 0.06977917 0.054625463 -0.098570086
-0.06579199 0.0555756 -0.026186705 0.03171334 -0.0075159254 0.028368311 0.016089207 -0.0006147444
-0.0048513925 0.0063677286 0.017140914 0.03499105 0.017080572 -0.0018441892 0.028828008 0.0021801852
00000000: 54a3 10bd 81ca b93d af9e 913d 2f07 2f3e
00000010: 67e7 dfbc 5238 7fbe 40d8 2a3e f317 1ebd
00000020: 8b4b 1abe 7dcf 0ebe c989 003e 5f6c 1b3e
00000030: c2b4 43bd 7b12 9cbc b083 7b3b bb6d b7bd
00000040: bfdf d3bd 0d05 f93d fa22 5e3d e9f4 053c
00000050: d48f 8ebd 8625 d43c a54a ecbc 052d 103d
00000060: 1de9 363d d4ea 1c3d 7855 8d3c 410e 1cbc
00000070: eba7 ea3c 8dbc 11bb 02b8 5c3d 7462 50bc
00000080: 1acd 623d 610b b9bc 5556 05bd 9c4e 58ba
00000090: 95f7 4bbc d3a0 5cbc 8ee6 9fba 9d1a 9c3c
000000a0: 7077 cb3b 9034 ba3a c3ef 373c 2c06 993c
000000b0: c303 b43a 3281 f0bc c166 25bd 23a3 d8bc
000000c0: 8c80 51bd 46a0 9f3c 88e7 bfba bb1b d53b
000000d0: 0809 00bd 62e8 8e3d f3be 5f3d 1ddf c9bd
000000e0: f3bd 86bd 3ea3 633d 8085 d6bc d9e5 013d
000000f0: 2748 f6bb a964 e83c 83cd 833c cc26 21ba
00000100: 6ef8 9ebb 61a8 d03b 1a6b 8c3c c652 0f3d
00000110: 8eec 8b3c b9b8 f1ba b728 ec3c 70e1 0e3b

stage0.0.conv3x3_1.convs.1.weight f4 [10, 1, 3, 3]
0.05959594 0.065433145 -0.013889974 0.01730457 0.050895054 -0.038733535 0.0069811484 -0.08192088
-0.01603669 0.015684437 0.02630366 0.026642138 -0.022570997 0.007022138 -0.00592752 0.006437347
0.00041621696 -0.011918286 -0.053845745 -0.14694194 0.08464402 0.11145243 -0.02754585 -0.021225832
0.06673343 0.08271713 -0.094778076 0.0077528353 0.0064824703 0.008290853 -0.03581454 -0.034641612
-0.008850537 -0.012507458 -0.016096603 -0.0014102667 -0.017963609 -0.022997253 -0.0033921285 -1.5320125e-05
-0.003732586 0.002129949 0.0046554417 0.020698331 0.01312676 0.0006324161 0.022075213 0.030789182
-0.032222044 -0.03272167 0.036699712 -0.029107952 0.003174578 -0.0016354746 0.0029946477 0.005646767
-0.00070297107 0.018204493 0.033929314 0.013234684 0.021270778 -0.006965637 0.0028385494 -0.007619922
0.02240207 0.01701119 -0.008188826 0.016580477 0.011511339 -0.012738572 0.00018118786 -0.015546273
0.007937941 -0.009143731 0.004653671 0.011366079 -0.026032716 -0.017220816 0.00484082 -0.025801992
-0.00029192038 0.013222238 0.02741098 0.0005297377 0.023166163 0.028442824 0.0023933263 -0.0063955965
0.0045719678 -0.011455206
00000000: df1a 743d d001 863d c692 63bc 50c2 8d3c
00000010: 5577 503d 0ea7 1ebd 1ec2 e43b 22c6 a7bd
00000020: 605f 83bc a67c 803c c67a d73c 9d40 da3c
00000030: d0e6 b8bc f719 e63b a43b c2bb 61f0 d23b
00000040: b237 da39 ea44 43bc 5b8d 5cbd f377 16be
00000050: d859 ad3d 2c41 e43d d6a7 e1bc cce1 adbc
00000060: 89ab 883d 9967 a93d 021b c2bd 7f0b fe3b
00000070: e76a d43b 5cd6 073c 44b2 12bd 5de4 0dbd
00000080: d801 11bc 15ec 4cbc 06dd 83bc b3d8 b8ba
00000090: 6b28 93bc bc64 bcbc 794e 5ebb b883 80b7
000000a0: 679e 74bb 9d96 0b3b ad8c 983b 8c8f a93c
000000b0: 9f11 573c bac8 253a 14d7 b43c 9839 fc3c
000000c0: 43fb 03bd 2807 06bd 7052 163d cd73 eebc
000000d0: 950c 503b 6c5d d6ba da41 443b 8408 b93b
000000e0: 9747 38ba 9721 953c 77f9 0a3d 4ad6 583c
000000f0: 0e40 ae3c 0040 e4bb f506 3a3b 8ab0 f9bb
00000100: 8c84 b73c 0d5b 8b3c 6d2a 06bc c8d3 873c
00000110: 0e9a 3c3c 72b5 50bc 3ffd 3d39 ccb5 7ebc
00000120: 230e 023c 96cf 15bc d27d 983b ca38 3a3c
00000130: 9042 d5bc ab12 8dbc be9f 9e3b b35e d3bc
00000140: e40c 99b9 16a2 583c fe8c e03c 18de 0a3a
00000150: f7c6 bd3c ed00 e93c 5ad9 1c3b 2792 d1bb
00000160: 72d0 953b 9eae 3bbc

stage0.0.conv3x3_1.bns.0.weight f4 [8]
0.005615081 0.0027162037 0.02266786 0.00677576 0.016182208 0.009957985 0.007860733 0.010750486
00000000: b7fe b73b 5602 323b f3b1 b93c 3207 de3b
00000010: 8d90 843c d126 233c 4eca 003c ce22 303c

stage0.0.conv3x3_1.bns.0.bias f4 [8]
0.019740414 0.020269167 -0.02916667 0.013784598 -0.015181361 0.012291399 0.019945411 0.016579626
00000000: a6b6 a13c 860b a63c f1ee eebc cbd8 613c
00000010: 3ebb 78bc dd61 493c 8f64 a33c ffd1 873c

stage0.0.conv3x3_1.bns.0.running_mean f4 [8]
-0.0029191934 0.0070175324 0.17757015 0.09523587 0.02417707 0.009524309 -0.024047283 0.16772301
00000000: f04f 3fbb 54f3 e53b f3d4 353e 060b c33d
00000010: fe0e c63c d90b 1c3c cffe c4bc 95bf 2b3e

stage0.0.conv3x3_1.bns.0.running_var f4 [8]
0.0063829673 0.0073026246 0.012589933 0.0020125064 0.00066171144 2.9572336e-06 0.0020928509 0.00077896594
00000000: 3628 d13b db4a ef3b 0246 4e3c 41e4 033b
00000010: b476 2d3a e374 4636 3628 093b 8533 4c3a

stage0.0.conv3x3_1.bns.1.weight f4 [10]
0.008285763 0.005817778 0.010415368 0.0073228567 0.0049640406 0.010578411 0.009589964 0.012155646
0.007809561 0.0026510425
00000000: 02c1 073c 0fa3 be3b 38a5 2a3c 93f4 ef3b
00000010: 64a9 a23b 1251 2d3c 391f 1d3c 7a28 473c
00000020: 59e7 ff3b 1dbd 2d3b

stage0.0.conv3x3_1.bns.1.bias f4 [10]
0.011030531 0.012537641 -0.00020270853 0.02838678 0.010131919 0.010185628 0.0029780876 0.004615092
-0.02777555 0.010147341
00000000: 66b9 343c ae6a 4d3c 288e 54b9 648b e83c
00000010: 5900 263c 9fe1 263c 052c 433b 333a 973b
00000020: 8d89 e3bc 0841 263c

stage0.0.conv3x3_1.bns.1.running_mean f4 [10]
0.080375634 0.06647174 0.0011957568 -0.14562464 -0.0041506104 -0.0037958666 0.09449829 0.018751482
-0.012824161 0.035419006
00000000: fb9b a43d 5622 883d f1ba 9c3a a01e 15be
00000010: d801 88bb 13c4 78bb 5288 c13d b59c 993c
00000020: 6e1c 52bc 8513 113d

stage0.0.conv3x3_1.bns.1.running_var f4 [10]
0.0034043407 0.00021809788 0.0015488609 0.0029337981 0.0016367823 0.00034399953 0.00029729604 0.00033698743
0.0007099835 0.0060546156
00000000: 5c1b 5f3b 34b1 6439 2603 cb3a f744 403b
00000010: 4d89 d63a d65a b439 66de 9b39 b0ad b039
00000020: 301e 3a3a cc65 c63b

stage0.0.conv3x3_1.prelus.0.weight f4 [8]
0.000236117 -3.6161084e-05 0.099334866 0.0017653354 0.042923044 -0.0011665169 0.0026764872 0.00076586765
00000000: 2d96 7739 abab 17b8 1470 cb3d d462 e73a
00000010: 13d0 2f3d d0e5 98ba 0168 2f3b 82c4 483a

stage0.0.conv3x3_1.prelus.1.weight f4 [10]
0.0006400996 0.0007046744 -0.012693346 0.0003501822 -0.00082337536 0.0062658186 0.00016548121 0.0017950111
0.04542644 -2.17e-42
00000000: 5bcc 273a e6b9 383a c0f7 4fbc a998 b739
00000010: c9d7 57ba 7f51 cd3b 0685 2d39 9446 eb3a
00000020: 1311 3a3d 0d06 0080

stage0.0.conv3x3_2.convs.0.weight f4 [8, 1, 3, 3]
0.033261944 0.01041686 0.0302937 0.04900259 0.012552404 0.01252511 0.013486375 0.030202895
-0.0067114946 0.011658522 0.00390344 0.002342722 0.0111879865 0.018573701 0.024434632 0.026168443
0.013574081 0.004575263 -0.031927127 0.08087605 0.06314112 0.006049396 -0.015692413 0.014481231
-0.04557562 0.02454915 -0.06145666 -0.0032144873 0.0046774554 0.0042527677 0.0071930108 -0.04995671
-0.01740569 0.034789063 -0.01552648 0.043833844 -0.00039870036 -0.010112523 -0.0044865925 -0.0055261105
-0.014221514 -0.010033018 -0.0029538197 -0.0043730987 -0.010305282 0.009846323 0.0020749283 0.03892427
-0.013001781 -0.032523498 -0.020298965 0.0078015914 -0.031662546 -0.028003866 0.0029938458 0.00023436244
-0.0016692674 -0.005693712 0.0052372897 -0.00047769633 -0.06372239 -0.047975957 0.047301527 0.077560365
-0.09384665 0.14743233 -0.008668189 0.0064348904 0.031438757 -0.17603435 0.17264779 -0.08772044
00000000: ad3d 083d 7aab 2a3c 7e2a f83c f1b6 483d
00000010: 99a8 4d3c 1e36 4d3c f5f5 5c3c 106c f73c
00000020: 19ec dbbb 6303 3f3c dbd0 7f3b 5a88 193b
00000030: d14d 373c e027 983c 232b c83c 345f d63c
00000040: d265 5e3c 16ec 953b 05c6 02bd 58a2 a53d
00000050: 2250 813d 033a c63b 608d 80bc af42 6d3c
00000060: 80ad 3abd 4d1b c93c fbb9 7bbd 26aa 52bb
00000070: 5745 993b cd5a 8b3b 59b3 eb3b 689f 4cbd
00000080: 6196 8ebc fa7e 0e3d c762 7ebc 1e8b 333d
00000090: a808 d1b9 ffae 25bc 4404 93bb 6014 b5bb
000000a0: 5a01 69bc 8761 24bc df94 41bb 364c 8fbb
000000b0: 7cd7 28bc 7952 213c 85fb 073b 0e6f 1f3d
000000c0: 6c05 55bc 5c37 05bd 044a a6bc 7ea4 ff3b
000000d0: 96b0 01bd 5d68 e5bc 6634 443b 30bf 7539
000000e0: 52cb daba 5192 babb 929d ab3b 5173 fab9
000000f0: e280 82bd 7082 44bd 3fbf 413d f8d7 9e3d
00000100: ac32 c0bd 80f8 163e 0505 0ebc c6db d23b
00000110: edc5 003d 5942 34be 95ca 303e c6a6 b3bd

stage0.0.conv3x3_2.convs.1.weight f4 [10, 1, 3, 3]
-0.0024703087 -0.050384473 0.0069611035 -0.023651898 0.05814829 0.03155766 -0.0030928487 0.0008171032
0.015290891 0.07507218 0.06583364 -0.0009348956 0.027533438 -0.116209164 -0.008242136 -0.04544582
-0.09329294 0.09985301 -0.008583728 0.003153448 0.010786065 -0.0087272655 -0.01726429 -0.0021476266
0.0035167786 -0.027809598 -0.020084227 -0.016567038 -0.040939298 0.093385465 -0.020478532 -0.04157297
0.030289736 -0.022962626 -0.031597313 0.050959498 0.0020859563 0.020679027 0.022199055 -0.012830332
0.0061896425 -0.020460647 0.01319835 -0.018541861 -0.013692002 -0.0007893624 -0.013945233 -0.0027965715
-0.01546332 -0.015470625 -0.009799162 -0.008699086 -0.00966171 -0.009925349 0.0090740295 -0.014591326
0.0073216083 -0.0027448249 0.02074011 0.03471665 -0.006680567 0.0022004896 -0.006988768 0.007357315
0.012265273 0.011868135 -0.015950613 -0.014202449 0.00063579675 -0.027858904 -0.025113914 0.026305394
-0.0077618966 0.024481032 0.012074768 0.026798673 -0.008797041 -0.037292946 0.0076519935 0.017411355
-0.03521767 0.005705038 -0.014535641 0.010099659 -0.009520005 -0.035183016 -0.01914601 0.014827356
-0.027847877 -0.0038138144
00000000: e7e4 21bb f35f 4ebd f819 e43b a0c1 c1bc
00000010: e72c 6e3d 9b42 013d 64b1 4abb de32 563a
00000020: a586 7a3c 71bf 993d cad3 863d c813 75ba
00000030: ce8d e13c 12ff edbd 060a 07bc 6525 3abd
00000040: 5e10 bfbd bc7f cc3d c4a2 0cbc 14aa 4e3b
00000050: 09b8 303c cefc 0ebc d76d 8dbc 32bf 0cbb
00000060: c179 663b f4d0 e3bc ad87 a4bc 99b7 87bc
00000070: f7af 27bd e140 bf3d 98c2 a7bc 6b48 2abd
00000080: 2e22 f83c 1e1c bcbc 2f6c 01bd e8ba 503d
00000090: 8ab4 083b 1067 a93c cbda b53c 5036 52bc
000000a0: 7cd2 ca3b 169d a7bc e43d 583c 1ae5 97bc
000000b0: 6b54 60bc 37ed 4eba 8c7a 64bc af46 37bb
000000c0: dd59 7dbc 8178 7dbc aa8c 20bc 9c86 0ebc
000000d0: 264c 1ebc ee9d 22bc 3dab 143c 7510 6fbc
000000e0: 1aea ef3b 85e2 33bb 2ae7 a93c 0c33 0e3d
000000f0: a8e8 dabb 1736 103b 0902 e5bb a215 f13b
00000100: 49f4 483c 9172 423c dcaa 82bc 63b1 68bc
00000110: 99ab 263a 5b38 e4bc b2bb cdbc 697e d73c
00000120: 8257 febb 728c c83c 3fd5 453c e488 db3c
00000130: 7721 10bc 7dc0 18bd 93bd fa3b 42a2 8e3c
00000140: 6740 10bd 54f1 ba3b e626 6ebc 0a79 253c
00000150: ccf9 1bbc 111c 10bd 18d8 9cbc 70ee 723c
00000160: 3b21 e4bc 30f1 79bb

stage0.0.conv3x3_2.bns.0.weight f4 [8]
0.025000613 0.023404842 0.010371965 0.014923936 0.04328675 0.01140282 0.020901501 0.014509559
00000000: 16ce cc3c 83bb bf3c 2def 293c 8683 743c
00000010: 724d 313d e5d2 3a3c a039 ab3c 80b9 6d3c

stage0.0.conv3x3_2.bns.0.bias f4 [8]
-0.0014715521 -0.003098876 0.007754709 0.008636253 -0.012221152 0.03171317 0.021910643 0.016687816
00000000: 18e1 c0ba 8316 4bbb 371b fe3b 127f 0d3c
00000010: 3a3b 48bc abe5 013d f37d b33c e3b4 883c

stage0.0.conv3x3_2.bns.0.running_mean f4 [8]
0.36361358 0.23507944 -0.0078040026 0.011420175 -0.008152365 -0.08376369 -0.12592302 0.11690233
00000000: 8f2b ba3e aab8 703e b8b8 ffbb b01b 3b3c
00000010: 7f91 05bc 4c8c abbd f7f1 00be 7d6a ef3d

stage0.0.conv3x3_2.bns.0.running_var f4 [8]
0.004905732 0.0004561685 0.00041611792 0.0014154933 0.00094036205 0.0007759002 0.004116722 0.0071606482
00000000: 43c0 a03b e629 ef39 672a da39 1388 b93a
00000010: a182 763a c865 4b3a 91e5 863b dfa3 ea3b

stage0.0.conv3x3_2.bns.1.weight f4 [10]
0.013258513 0.018658424 0.0086262645 0.03629872 0.019225564 0.023393588 0.012463936 0.0120038865
0.010292188 0.011438653
00000000: 3c3a 593c 8dd9 983c 2d55 0d3c f7ad 143d
00000010: ee7e 9d3c e9a3 bf3c 8935 4c3c f3ab 443c
00000020: 91a0 283c 3069 3b3c

stage0.0.conv3x3_2.bns.1.bias f4 [10]
0.00640004 -0.0016858584 0.029267812 -0.0052549965 0.00024707126 -0.008933677 0.0025265212 0.011303195
0.02693005 0.025595998
00000000: 6db7 d13b 05f8 dcba 0dc3 ef3c 1b32 acbb
00000010: 5889 8139 8f5e 12bc fe93 253b 0931 393c
00000020: 699c dc3c b3ae d13c

stage0.0.conv3x3_2.bns.1.running_mean f4 [10]
0.040023524 0.0017749524 -0.01636574 -0.003909377 -0.0011900548 -0.094216906 0.020750627 -0.018817153
4.4999957e-05 -0.080429986
00000000: b5ef 233d 85a5 e83a 7211 86bc 3b1a 80bb
00000010: 9dfb 9bba cbf4 c0bd 38fd a93c 6e26 9abc
00000020: 56be 3c38 7ab8 a4bd

stage0.0.conv3x3_2.bns.1.running_var f4 [10]
0.0016202132 0.0007281532 0.0012718866 0.003143367 0.00063258375 0.0018046703 0.0009188511 0.001073916
6.6469297e-06 0.00043619593
00000000: 555d d43a 89e1 3e3a 6fb5 a63a f200 4e3b
00000010: fad3 253a b08a ec3a 0edf 703a a4c2 8c3a
00000020: b108 df36 3ab1 e439

stage0.0.conv3x3_2.prelus.0.weight f4 [8]
-0.08729501 -0.09677631 0.001007158 0.0024422226 0.080083005 0.0016812894 0.06333272 0.0016143268
00000000: bac7 b2bd a832 c6bd 9d02 843a b20d 203b
00000010: 8f02 a43d b65e dc3a 96b4 813d d297 d33a

stage0.0.conv3x3_2.prelus.1.weight f4 [10]
0.002390089 0.002141367 0.0019772267 -0.073370144 0.0011219362 -0.05394246 -0.0018719172 0.0055669076
8.563679e-05 0.0013694313
00000000: 0aa3 1c3b 2d56 0c3b 5c94 013b 1643 96bd
00000010: ef0d 933a c5f2 5cbd 1e5b f5ba 9b6a b63b
00000020: e797 b338 7d7e b33a

stage1.0.conv1x1.conv.weight f4 [19, 18, 1, 1]
-0.013270639 -0.015977748 -0.0017260967 0.026103336 0.035257574 -0.009613107 0.065795235 0.013196426
-0.0015465138 -0.006677442 0.002953528 -0.0010987493 0.01097176 -0.0015391978 -0.007023129 -0.00955171
0.015238953 0.023966253 0.01785185 -0.003442194 -0.06475677 0.006659204 -0.0038543805 0.047508165
-0.031851437 0.043598887 -0.049322117 -0.022796322 0.004780513 -0.008244681 -0.014623711 -0.021532364
-0.008259997 -0.03233697 0.012867614 -0.014090135 -0.026399713 -0.024541318 0.03418456 0.031339012
-0.011266267 -0.044458482 -0.00593726 0.05300496 -0.008780077 -0.016088244 0.010979973 0.011935325
0.0009019529 0.009838943 -0.031233087 -0.0008902644 0.012597143 0.0061357412 -0.042610027 0.0010190769
2.902525e-05 -0.025653675 -0.029643565 -0.012518986 -0.060068104 -0.0014338874 6.2892315e-05 0.0035262215
-0.0028200143 -0.0022167044 -0.0038088188 0.007324579 -0.009348715 0.00380188 -0.0059222807 0.044852115
0.047405373 0.024748769 0.014801084 -0.020525878 -0.020304693 0.05390655 0.013174372 -0.033210713
-0.0130064795 0.014920853 0.0019412158 0.014532152 -0.035477627 0.0061708055 0.007962711 -0.0029626822
0.0068180407 -0.00068307784 0.06334116 0.04772514 -0.01048115 0.008556747 -0.024992906 -0.0033706618
-0.023719948 0.038970638 -0.015450734 -0.0040233405 -0.047294576 0.07387464 0.024567518 0.045769572
0.03166003 -0.006103483 -0.037299152 -0.043520138 0.010280266 0.003230678 0.02629357 -0.0016847062
-0.047171604 -0.019068828 -0.008955321 0.05378016 0.0316657 -0.0063408096 -0.0027975435 0.01334129
-0.014463838 -0.0063692993 -0.009021981 -0.012516741 0.0011609907 0.0053912685 -0.0046270383 0.004888661
0.0032107756 0.04218887 -0.005768474 -0.015499482 0.021696996 0.006164293 -0.0021819395 -0.0043232534
-0.0053349785 -0.0057398817 -0.0062387018 -0.006844938 0.003956497 -0.0029641823 0.023406519 0.008282906
0.0008337846 -0.022355929 -0.03280535 0.01606969 -0.017855303 0.0313086 0.019213855 -0.060318798
0.03185056 -0.025705291 0.010187409 -0.0006846039 0.017570928 -0.011097116 -0.014295328 -0.027993092
0.005793988 0.005869386 0.0030019034 0.013907957 0.0033728017 0.014076935 0.0009927084 -0.009149338
0.020164056 -0.0005348748 0.007809514 0.003847324 -0.0022221117 -0.013437155 -0.008769234 -0.02090081
-0.018936593 0.0096249785 -0.005319185 -0.021619143 0.01940763 0.0065111406 -0.026568696 -0.021102984
0.00414989 -0.043802813 -0.020570396 0.01209012 -0.024657318 0.02445466 0.009895358 -0.012486749
-0.011488903 0.0033093235 0.02168899 0.011724531 -0.008176829 -0.018183114 -0.006891081 0.0011260656
0.021184187 0.011381301 0.0060080998 0.0018410846 -0.0043783663 -0.02235373 0.0059596216 -0.017337222
-0.001692917 -0.016658729 0.02732829 0.0032363941 0.015745139 0.0020786228 -0.008737011 -0.0064925016
0.014372721 -0.031245993 0.00886312 -0.0006447191 -0.004699507 -0.008149933 0.013892343 -0.011589645
0.0153225465 -0.015242695 0.03458029 -0.00028098552 -0.0037140327 -0.0026744609 0.00107359 0.01691445
-0.005953837 -0.026444674 -0.006301145 -0.0065275705 -0.013278354 -0.0101772975 -0.0070167584 0.016095193
0.0016608493 -0.022897357 0.0022779328 -0.022279719 0.0064924373 0.020137118 -0.00080083305 0.0025336295
0.0014206151 -0.018328004 0.0073725604 -0.01617198 -0.043941792 -0.0049090567 -0.017347926 0.0016385893
00000000: 186d 59bc c4e3 82bc 323e e2ba aad6 d53c
00000010: 3f6a 103d 4b80 1dbc a7bf 863d d335 583c
00000020: 64b4 caba 72ce dabb fa8f 413b e903 90ba
00000030: e6c2 333c e8be c9ba 4722 e6bb c77e 1cbc
00000040: cdac 793c e054 c43c 0b3e 923c 6f96 61bb
00000050: 339f 84bd 7435 da3b c699 7cbb ec97 423d
00000060: a776 02bd bf94 323d fd05 4abd 5abf babc
00000070: d9a5 9c3b b314 07bc 4a98 6fbc a464 b0bc
00000080: f054 07bc c573 04bd afd2 523c 4fda 66bc
00000090: 3644 d8bc e00a c9bc 1c05 0c3d 565d 003d
000000a0: 2696 38bc 191a 36bd 598d c2bb bb1b 593d
000000b0: 50da 0fbc 7ecb 83bc 58e5 333c 628c 433c
000000c0: 0971 6c3a 8533 213c 88dc ffbc a260 69ba
000000d0: 3f64 4e3c 540e c93b da87 2ebd 8c92 853a
000000e0: 407b f337 a827 d2bc 10d7 f2bc 6f1c 4dbc
000000f0: f909 76bd 47f1 bbba 0ee5 8338 2e18 673b
00000100: fdcf 38bb 2146 11bb 609d 79bb 0603 f03b
00000110: 5a2b 19bc f628 793b b10f c2bb dab6 373d
00000120: 232c 423d eebd ca3c 3f80 723c e325 a8bc
00000130: 0756 a6bc 1dcd 5c3d 52d9 573c f507 08bd
00000140: 2119 55bc 9876 743c 6570 fe3a 4318 6e3c
00000150: fd50 11bd 7834 ca3b 0876 023c 8f29 42bb
00000160: df69 df3b 9410 33ba 03b9 813d 707b 433d
00000170: 21b9 2bbc 9931 0c3c ecbd ccbc 52e6 5cbb
00000180: 5650 c2bc ad9f 1f3d 1325 7dbc 3ad6 83bb
00000190: f5b7 41bd 964b 973d d241 c93c e078 3b3d
000001a0: f3ad 013d baff c7bb ffc6 18bd 2c42 32bd
000001b0: 906e 283c c8b9 533b 9d65 d73c 5cd1 dcba
000001c0: 0337 41bd 3b36 9cbc 57b9 12bc 9648 5c3d
000001d0: e5b3 013d 91c6 cfbb fe56 37bb 6d95 5a3c
000001e0: bcf9 6cbc 8eb5 d0bb eed0 13bc 0413 4dbc
000001f0: 622c 983a 3da9 b03b 699e 97bb 1031 a03b
00000200: e06b 523b 3dce 2c3d 7805 bdbb 8af1 7dbc
00000210: e6bd b13c d6fd c93b dffe 0ebb 14aa 8dbb
00000220: 0bd1 aebb 9e15 bcbb 066e ccbb 804b e0bb
00000230: 81a5 813b ba42 42bb 07bf bf3c 07b5 073c
00000240: 5692 5a3a c823 b7bc e75e 06bd 95a4 833c
00000250: 4945 92bc 723d 003d 6066 9d3c d810 77bd
00000260: bc75 023d e793 d2bc 17e9 263c fd76 33ba
00000270: e8f0 8f3c aed0 35bc f436 6abc c551 e5bc
00000280: 7edb bd3b fa53 c03b 95bb 443b 33de 633c
00000290: 390a 5d3b f2a2 663c c41d 823a 1be7 15bc
000002a0: 172f a53c d736 0cba f4e6 ff3b 6323 7c3b
000002b0: d9a0 11bb 8327 5cbc d5ac 0fbc 2d38 abbc
000002c0: ea20 9bbc 16b2 1d3c 8f4c aebb a11a b1bc
000002d0: c0fc 9e3c 685b d53b 98a6 d9bc 2ae0 acbc
000002e0: cdfb 873b 946a 33bd 3f83 a8bc a415 463c
000002f0: 25fe c9bc 2455 c83c 2420 223c 3995 4cbc
00000300: f43b 3cbc 3ce1 583b 1cad b13c 3f18 403c
00000310: 1bf8 05bc c1f4 94bc 94ce e1bb 7e98 933a
00000320: 768a ad3c a378 3a3c 98df c43b 8c50 f13a
00000330: 6678 8fbb 2b1f b7bc ee48 c33b ca06 8ebc
00000340: dee4 ddba e377 88bc 94df df3c af19 543b
00000350: f3fb 803c 8139 083b ae25 0fbc 0dbf d4bb
00000360: 907b 6b3c 99f7 ffbc 9f36 113c 5e02 29ba
00000370: 52fe 99bb 4c87 05bc b69c 633c 7fe2 3dbc
00000380: 6b0b 7b3c 7fbc 79bc 10a4 0d3d 3d51 93b9
00000390: 2167 73bb 0246 2fbb b4b7 8c3a 2c90 8a3c
000003a0: 6818 c3bb 80a2 d8bc d679 cebb 3be5 d5bb
000003b0: 748d 59bc aebe 26bc d6ec e5bb 11da 833c
000003c0: dbb0 d93a 3d93 bbbc 5f49 153b f583 b6bc
000003d0: 83be d43b 99f6 a43c ffee 51ba 400b 263b
000003e0: ef33 ba3a 9c24 96bc 8595 f13b 1a7b 84bc
000003f0: 4ffc 33bd 27dc a0bb 3d1d 8ebc efc5 d63a

stage1.0.conv1x1.bns.0.weight f4 [9]
0.007361455 0.011757235 0.007740959 0.021837912 0.0070848092 0.008167896 0.0019861138 0.0056703263
0.012054585
00000000: 5c38 f13b 6ba1 403c dfa7 fd3b 6ce5 b23c
00000010: b027 e83b a4d2 053c 7629 023b 25ce b93b
00000020: 9880 453c

stage1.0.conv1x1.bns.0.bias f4 [9]
0.011619337 0.01128629 0.014094275 0.0009869128 0.0069880555 0.007820129 0.010088882 0.008321201
0.0067291134
00000000: 085f 3e3c 22ea 383c adeb 663c 4c5b 813a
00000010: 0ffc e43b 0020 003c d74b 253c a655 083c
00000020: e57f dc3b

stage1.0.conv1x1.bns.0.running_mean f4 [9]
0.0027034075 0.00010574861 0.000256501 -0.001565574 0.0017667266 -0.0024239395 0.00027733183 0.0011129595
0.0005359356
00000000: a72b 313b 5ac5 dd38 fb7a 8639 f233 cdba
00000010: 8291 e73a f5da 1ebb d966 9139 b9e0 913a
00000020: 077e 0c3a

stage1.0.conv1x1.bns.0.running_var f4 [9]
1.5902226e-06 2.0836285e-06 1.4537939e-06 2.2066388e-06 1.522352e-06 4.5160064e-06 1.1385682e-06 6.012235e-07
1.4143529e-06
00000000: a26f d535 77d4 0b36 fa1f c335 c415 1436
00000010: 9e53 cc35 3388 9736 e8d0 9835 c463 2135
00000020: ccd4 bd35

stage1.0.conv1x1.bns.1.weight f4 [10]
0.015114217 0.013692337 0.007954596 0.0075696283 0.010789097 0.015447488 0.017742492 0.00697803
0.00887629 0.007985406
00000000: 9fa1 773c d355 603c fe53 023c a50a f83b
00000010: c1c4 303c 7617 7d3c b458 913c f5a7 e43b
00000020: dc6d 113c 38d5 023c

stage1.0.conv1x1.bns.1.bias f4 [10]
7.9264246e-05 -0.017097246 0.002606881 0.0030519844 0.0035684104 0.0021772333 0.0023890508 0.0026237185
0.0065182764 0.009228566
00000000: ab3a a638 860f 8cbc 35d8 2a3b cd03 483b
00000010: fedb 693b eaaf 0e3b 9f91 1c3b b1f2 2b3b
00000020: 4497 d53b 6933 173c

stage1.0.conv1x1.bns.1.running_mean f4 [10]
-9.876271e-05 -0.002728625 -0.00039915196 0.00036042387 -0.00052554783 0.0016018666 -0.0025342477 0.0002608553
0.0032140047 -0.0023501976
00000000: d41e cfb8 bbd2 32bb 4545 d1b9 46f7 bc39
00000010: ebc4 09ba b9f5 d13a 9f15 26bb 68c3 8839
00000020: 0da2 523b c605 1abb

stage1.0.conv1x1.bns.1.running_var f4 [10]
4.7446235e-07 8.8973417e-07 3.836919e-07 3.8964387e-07 4.011356e-07 1.5486124e-06 1.4436222e-06 3.8405977e-07
1.2634987e-06 1.4663758e-06
00000000: 9cb9 fe34 11d6 6e35 37fe cd34 3f30 d134
00000010: a85b d734 ebd9 cf35 7bc2 c135 c630 ce34
00000020: 7c95 a935 4ad0 c435

stage1.0.conv1x1.prelus.0.weight f4 [9]
7.544524e-06 9.064516e-05 -1.8133321e-06 0.009893401 0.00017698559 -1.0172374e-05 2.33e-43 -3.2518244e-34
7.579114e-05
00000000: f826 fd36 c018 be38 9e61 f3b5 ee17 223c
00000010: 3595 3939 03aa 2ab7 a600 0000 ed1e d887
00000020: 0ff2 9e38

stage1.0.conv1x1.prelus.1.weight f4 [10]
0.0009289896 0.034299985 -4.467514e-05 0.0001699253 0.00011149521 -0.00087177113 0.0012058206 -1.7763126e-05
-3.2811804e-05 0.00013769566
00000000: 7087 733a 247e 0c3d 9161 3bb8 fa2d 3239
00000010: 89d2 e938 9287 64ba a00c 9e3a 0602 95b7
00000020: 689f 09b8 6662 1039

stage1.0.conv3x3_1.convs.0.weight f4 [9, 1, 3, 3]
-0.04472347 -0.011964379 -0.02416692 0.05885832 0.04560648 -0.06642057 -0.03357422 -0.017370626
-0.025294699 -0.012691716 -0.007803282 -0.021035885 -0.004092546 -0.019361006 -0.023654312 -0.011538961
0.014026215 0.009645668 0.069376744 -0.02460335 0.050066084 0.00077702187 -0.004205971 -0.007286961
-0.038199715 -0.06253098 -0.05573968 -0.017283775 0.005898454 -0.012249808 0.010763502 0.025004953
0.007814506 0.008211679 0.04069381 0.0055528283 -0.029438766 -0.016603498 -0.023718234 0.01863756
-0.01506375 -0.027536454 0.04861574 -0.009601113 -0.02261204 -0.041429862 0.017830802 -0.009423139
-0.0060789096 0.051464293 -0.034005597 0.04258177 0.06303272 -0.027651163 -0.017067356 0.024508802
-0.012929562 -0.011654222 -0.034198064 0.014014663 0.0030369961 -0.008168592 -0.022360863 0.003949986
0.019428011 -0.0048508006 0.007634373 0.010730616 0.0043804185 -0.012295645 0.02412438 -0.054124564
0.01778775 -0.019490205 -0.02797901 0.014877038 0.0100627085 0.024550289 0.022121046 0.019586643
-0.009479566
00000000: f52f 37bd 3e06 44bc b4f9 c5bc 6c15 713d
00000010: dccd 3a3d 8207 88bd 1f85 09bd d84c 8ebc
00000020: d436 cfbc eaf0 4fbc acb2 ffbb 7353 acbc
00000030: c41a 86bb f99a 9ebc b0c6 c1bc e90d 3dbc
00000040: 36ce 653c dd08 1e3c 6515 8e3d f78c c9bc
00000050: 1812 4d3d 0eb1 4b3a 3ed2 89bb 76c7 eebb
00000060: 4e77 1cbd 3e10 80bd 4a4f 64bd b496 8dbc
00000070: d247 c13b 6bb3 48bc 6659 303c 30d7 cc3c
00000080: 6a08 003c 478a 063c 8dae 263d 80f4 b53b
00000090: 9129 f1bc 0f04 88bc be4c c2bc ccad 983c
000000a0: f2cd 76bc 2194 e1bc 4c21 473d fd4d 1dbc
000000b0: e33c b9bc 5cb2 29bd e711 923c 8263 1abc
000000c0: 9731 c7bb 39cc 523d 7449 0bbd 396a 2e3d
000000d0: 4c17 813d b184 e2bc d7d0 8bbc afc6 c83c
000000e0: 83d6 53bc 5af1 3ebc 4513 0cbd c29d 653c
000000f0: 5708 473b 8fd5 05bc 212e b7bc e26e 813b
00000100: 7e27 9f3c 77f3 9ebb c329 fa3b 77cf 2f3c
00000110: 9d89 8f3b ac73 49bc 7ea0 c53c b8b1 5dbd
00000120: 9eb7 913c eca9 9fbc 3d34 e5bc d2be 733c
00000130: 0fde 243c b01d c93c 3237 b53c 2b74 a03c
00000140: 2e50 1bbc

stage1.0.conv3x3_1.convs.1.weight f4 [10, 1, 3, 3]
-0.006947954 0.0037447626 0.0028185663 -0.0046727173 0.009431232 0.011798185 0.0023016436 0.0060976273
0.011368565 0.0032103292 0.0028263158 -0.004794988 -0.008779543 -0.015945915 -0.008909679 -0.01629219
-0.016804244 -0.0013685005 0.0027005933 0.007607962 0.004804724 0.0044967346 0.015816543 0.009565685
-0.001591011 0.008791464 -0.0031842673 -0.0006439301 -0.006613774 0.00016324474 -0.008383972 -0.014127966
-0.00012219908 0.0068702945 -0.014500114 -0.0020436596 -0.017299207 -0.019161394 -0.010064608 -0.012085201
-0.0038748144 0.028389918 0.017528107 0.011117693 0.006161694 -0.017504362 0.034483977 0.0066327513
-0.03751286 -0.031903293 -0.023240793 0.025199411 0.04188555 0.03752014 -0.048523407 0.021649947
-0.040381044 -0.052338894 0.057952497 -0.054680474 0.030927563 0.051931646 0.028828014 -0.008987895
0.0037962222 0.015245806 0.01159596 0.020429462 0.00048248886 0.010448192 0.0035572748 -0.007843876
-0.015288591 -0.017600209 -0.008406061 -0.019970734 -0.020035734 0.015616158 -0.0042226734 -0.009243294
0.008695534 0.016041737 -0.01661173 0.025453793 -0.016558368 -0.035164803 -0.02330673 0.0006153679
-0.0052886205 0.010939913
00000000: aaab e3bb b16a 753b b2b7 383b 981d 99bb
00000010: 7485 1a3c 2d4d 413c 2cd7 163b 9bce c73b
00000020: 3843 3a3c 6364 523b b639 393b 461f 9dbb
00000030: 13d8 0fbc 02a1 82bc e7f9 11bc 3377 85bc
00000040: 0ea9 89bc 425f b3ba 70fc 303b 364c f93b
00000050: f270 9d3b 5859 933b b291 813c 64b9 1c3c
00000060: 7889 d0ba 130a 103c 24af 50bb 6bcd 28ba
00000070: 5cb8 d8bb ad2c 2b39 ed5c 09bc fc78 67bc
00000080: 9122 00b9 3520 e13b e391 6dbc ebee 05bb
00000090: 11b7 8dbc 5bf8 9cbc 07e6 24bc 0201 46bc
000000a0: 99f0 7dbb f991 e83c 1b97 8f3c fc26 363c
000000b0: 09e8 c93b 4f65 8fbc 123f 0d3d 8d57 d93b
000000c0: 16a7 19bd 07ad 02bd 7a63 bebc ff6e ce3c
000000d0: 2f90 2b3d b8ae 193d 7bc0 46bd 3b5b b13c
000000e0: 9866 25bd 4f61 56bd 995f 6d3d a2f8 5fbd
000000f0: cd5b fd3c 47b6 543d ba28 ec3c f741 13bc
00000100: 0aca 783b 8cc9 793c fbfc 3d3c b05b a73c
00000110: 8ff6 fc39 e52e 2b3c 2b21 693b 9a83 00bc
00000120: 007d 7abc 502e 90bc 93b9 09bc aa99 a3bc
00000130: fb21 a4bc eada 7f3c 5a5e 8abb 2f71 17bc
00000140: b777 0e3c f669 833c 5315 88bc 7984 d03c
00000150: 6aa5 87bc f808 10bd c1ed bebc a450 213a
00000160: 2a4c adbb 523d 333c

stage1.0.conv3x3_1.bns.0.weight f4 [9]
0.011929291 0.0032710508 0.004274098 0.012416078 0.008430874 0.0055644065 0.004227633 0.011636215
0.00435766
00000000: 1373 433c 205f 563b bc0d 8c3b ce6c 4b3c
00000010: a621 0a3c a055 b63b f587 8a3b d3a5 3e3c
00000020: b4ca 8e3b

stage1.0.conv3x3_1.bns.0.bias f4 [9]
0.01091829 0.014237868 0.016744575 0.00781932 0.018870832 0.015440982 0.015963975 0.0055112634
0.0067678024
00000000: a1e2 323c f245 693c eb2b 893c 9b1c 003c
00000010: 0197 9a3c 2cfc 7c3c e2c6 823c d497 b43b
00000020: 71c4 dd3b

stage1.0.conv3x3_1.bns.0.running_mean f4 [9]
-0.13621525 -0.08687243 -0.10184822 0.027926695 -0.05382867 0.044204038 -0.06503653 -0.0005311009
0.03595832
00000000: 037c 0bbe 2cea b1bd cd95 d0bd 86c6 e43c
00000010: 747b 5cbd 4b0f 353d df31 85bd 9439 0bba
00000020: 0849 133d

stage1.0.conv3x3_1.bns.0.running_var f4 [9]
0.0009455802 0.001074527 0.0014947464 0.0005664944 0.0005182466 0.0014272232 2.250909e-05 7.029916e-05
0.0004499817
00000000: d0e0 773a 25d7 8c3a 5eeb c33a cc80 143a
00000010: f1da 073a aa11 bb3a e7d1 bc37 936d 9338
00000020: 85eb eb39

stage1.0.conv3x3_1.bns.1.weight f4 [10]
0.007321725 0.008896449 0.007839775 0.004353012 0.005657234 0.009252076 0.008404832 0.007746958
0.005738342 0.0029944293
00000000: 15eb ef3b 69c2 113c 6672 003c b6a3 8e3b
00000010: 5260 b93b 0596 173c 6cb4 093c 32da fd3b
00000020: b408 bc3b 303e 443b

stage1.0.conv3x3_1.bns.1.bias f4 [10]
0.001575922 0.009197765 0.00067345443 0.013407702 0.006868014 -8.8745044e-05 0.010945872 0.0047803847
0.020315882 0.022220708
00000000: 2b8f ce3a 39b2 163c c38a 303a faab 5b3c
00000010: 140d e13b a21c bab8 5156 333c c6a4 9c3b
00000020: 7e6d a63c 3408 b63c

stage1.0.conv3x3_1.bns.1.running_mean f4 [10]
0.003975088 0.0038757885 0.01283715 -0.012182912 0.00010118521 0.012183795 -0.0017444693 0.012664793
-0.045692403 -0.04088235
00000000: 7441 823b f100 7e3b e952 523c d69a 47bc
00000010: 6533 d438 8a9e 473c ada6 e4ba fe7f 4f3c
00000020: f527 3bbd 4074 27bd

stage1.0.conv3x3_1.bns.1.running_var f4 [10]
5.128427e-05 5.82982e-07 3.3843746e-05 1.9053034e-05 4.5880217e-05 0.00034645907 0.0006282825 3.1931766e-05
0.00038044646 0.00021723728
00000000: 111a 5738 387e 1c35 72f3 0d38 14d4 9f37
00000010: 826f 4038 f3a4 b539 53b3 243a 79ee 0538
00000020: a976 c739 30ca 6339

stage1.0.conv3x3_1.prelus.0.weight f4 [9]
0.015836254 -7.499293e-06 -0.00027348677 0.0035960763 0.00050706987 -1.1855403e-05 1.469701e-06 0.0039180904
0.000253521
00000000: 08bb 813c 70a2 fbb6 c662 8fb9 26ac 6b3b
00000010: e2ec 043a 91e6 46b7 8b42 c535 5363 803b
00000020: 03eb 8439

stage1.0.conv3x3_1.prelus.1.weight f4 [10]
0.00043596822 -0.002162986 -0.00027865244 -0.00017722616 -9.15044e-05 0.00046565876 -0.0013339259 -0.00013016345
0.000279494 -1.1862824e-05
00000000: aa92 e439 e2c0 0dbb 1918 92b9 c9d5 39b9
00000010: 0de6 bfb8 a923 f439 20d7 aeba 7c7c 08b9
00000020: 0d89 9239 7106 47b7

stage1.0.conv3x3_2.convs.0.weight f4 [9, 1, 3, 3]
0.011242476 0.020471338 0.0262343 0.0526488 -0.0057645235 -0.058312092 0.020024523 0.02799305
0.029811824 0.014728473 0.0037476644 -0.002770804 0.015507947 0.016310612 0.005896128 0.01553684
0.016299285 -0.004915397 -0.005547391 0.03453018 -0.039730605 0.022733407 0.04124546 0.004540822
0.031500608 -0.015860561 -0.004064041 -0.005542851 0.0352587 0.025411952 0.009567767 0.021156615
0.008765077 -0.020454355 -0.0006969247 -0.009169647 -0.0113444915 -0.0072995094 0.015252565 -0.021508563
0.003037386 -0.014373479 -0.018419985 -0.009024098 -0.014038268 -0.0024081792 0.03282312 0.023682162
0.0034679193 0.044280946 0.008240294 -0.016552677 -0.018928599 -0.011638662 0.00080963527 -0.017770283
-0.002289425 -0.004703613 -0.022646846 -0.011221633 -0.014518034 0.0048649875 -0.0050308937 0.052601874
-0.020746121 0.012944802 -0.01169306 0.0011249193 -0.004984633 0.01136743 -0.01436438 -0.0046678297
0.018232122 0.005194311 0.0039698477 -0.003261897 0.022902595 -0.0043353657 0.017316598 0.01278784
0.009937376
00000000: 5d32 383c 82b3 a73c 51e9 d63c 45a6 573d
00000010: 54e4 bcbb a9d8 6ebd 780a a43c ae51 e53c
00000020: ed37 f43c b14f 713c 609b 753b 6196 35bb
00000030: 0b15 7e3c d59d 853c 4e34 c13b 3b8e 7e3c
00000040: 1486 853c 5711 a1bb e3c6 b5bb 856f 0d3d
00000050: 8fbc 22bd 693b ba3c 00f1 283d 2dcb 943b
00000060: c806 013d 02ee 81bc a62b 85bb cea0 b5bb
00000070: 6d6b 103d ba2c d03c 20c2 1c3c a350 ad3c
00000080: 669b 0f3c e48f a7bc d3b1 36ba 493c 16bc
00000090: 3fde 39bc b930 efbb e5e5 793c ba32 b0bc
000000a0: e20e 473b be7e 6bbc 82e5 96bc cfd9 13bc
000000b0: c300 66bc 8bd2 1dbb 8971 063d 1801 c23c
000000c0: 0846 633b f05f 353d 4c02 073c 7b99 87bc
000000d0: 2610 9bbc 16b0 3ebc b43d 543a fc92 91bc
000000e0: 2e0a 16bb c420 9abb e185 b9bc f1da 37bc
000000f0: 0cdd 6dbc 796a 9f3b 32da a4bb 1075 573d
00000100: c5f3 a9bc 6f16 543c 4094 3fbc 0772 933a
00000110: 2256 a3bb 753e 3a3c 9458 6bbc 98f4 98bb
00000120: 885b 953c 0a35 aa3b 7f15 823b 8dc5 55bb
00000130: 399e bb3c af0f 8ebb 8adb 8d3c 1784 513c
00000140: 60d0 223c

stage1.0.conv3x3_2.convs.1.weight f4 [10, 1, 3, 3]
-0.002619085 -0.011184821 -0.0025016828 0.0021366833 -0.008108735 -0.0045064297 -0.006004406 -0.011027275
-0.0038638832 0.019268032 -0.014638825 -0.0131412735 -0.011133218 -0.017453264 -0.01584272 -0.00922402
-0.010841301 -0.002942884 0.00039959935 -0.005917128 0.00013156809 -0.007634365 -0.014380298 0.0063403663
-0.0039367243 -0.008190716 0.0014697225 -0.0042817346 -0.010043714 -0.0077342424 -0.008011689 0.0008213369
-0.0011294301 -0.013032901 -0.014363678 -0.00414078 -0.020135017 -0.0194753 0.0013755881 -0.0042145727
-0.003784062 0.0073796534 -0.0013144588 -0.0025125656 0.0057229223 0.006336585 0.023202522 0.015072135
-0.0045525893 0.01270295 0.01424516 -0.006014829 -0.0021559221 0.005023599 -0.011792427 -0.010463863
-0.0022753729 -0.026175769 -0.016962335 -0.013496862 0.004798615 -0.0068201157 0.016914042 0.014788035
0.024502676 -0.0022506737 0.01022789 -0.010667602 -0.00629217 -0.0011623447 -0.015426031 -0.011591135
0.022314733 0.0031932527 0.0029506967 -0.012353795 -0.027682342 -0.016378544 0.0051504504 -0.029462636
-0.011257242 0.010153291 -0.010453896 0.0064437333 -0.027236786 -0.028298283 -7.276562e-05 -0.004054852
-0.017853573 -0.00019334648
00000000: f4a4 2bbb 8a40 37bc 46f3 23bb 9907 0c3b
00000010: 80da 04bc acaa 93bb 9cc0 c4bb beab 34bc
00000020: 3439 7dbb fed7 9d3c afd7 6fbc 7f4e 57bc
00000030: 1a68 36bc 26fa 8ebc 98c8 81bc 5820 17bc
00000040: b69f 31bc 67dd 40bb 5181 d139 78e4 c1bb
00000050: 8af5 0939 b229 fabb 579b 6bbc d9c2 cf3b
00000060: a3ff 80bb 5a32 06bc b4a3 c03a cb4d 8cbb
00000070: 648e 24bc 876f fdbb 7643 03bc fc4e 573a
00000080: 6309 94ba f387 55bc a255 6bbc 61af 87bb
00000090: 31f2 a4bc aa8a 9fbc 144d b43a 661a 8abb
000000a0: 07fe 77bb 05d1 f13b eb49 acba dba9 24bb
000000b0: 5a87 bb3b 21a3 cf3b 3713 be3c 1ef1 763c
000000c0: e32d 95bb 0920 503c 8864 693c 0b18 c5bb
000000d0: 5f4a 0dbb 019d a43b 0635 41bc 9f70 2bbc
000000e0: 6c1e 15bb 916e d6bc 98f4 8abc f121 5dbc
000000f0: b33d 9d3b 477b dfbb 518f 8a3c 8449 723c
00000100: d6b9 c83c 0a80 13bb e192 273c 2ac7 2ebc
00000110: 8c2e cebb d159 98ba 77bd 7cbc bee8 3dbc
00000120: 63cd b63c e445 513b 7a60 413b 9267 4abc
00000130: 14c6 e2bc 4c2c 86bc 1cc5 a83b a05b f1bc
00000140: 4c70 38bc fd59 263c d146 2bbc f425 d33b
00000150: ae1f dfbc cdd1 e7bc bf99 98b8 90de 84bb
00000160: a841 92bc 0dbd 4ab9

stage1.0.conv3x3_2.bns.0.weight f4 [9]
0.011391319 0.011401014 0.012204799 0.014367608 0.009976241 0.020291325 0.019229604 0.010869354
0.011595139
00000000: a8a2 3a3c 52cb 3a3c a3f6 473c 1e66 6b3c
00000010: 6373 233c fe39 a63c 6787 9d3c 6015 323c
00000020: 8af9 3d3c

stage1.0.conv3x3_2.bns.0.bias f4 [9]
0.03628255 0.027725816 0.02412666 0.016735539 0.03121912 0.034498606 -0.0003394324 0.031712044
0.01003499
00000000: 039d 143d 4021 e33c 46a5 c53c f818 893c
00000010: 3dbf ff3c 694e 0d3d d8f5 b1b9 7de4 013d
00000020: cc69 243c

stage1.0.conv3x3_2.bns.0.running_mean f4 [9]
0.1446793 0.11360338 0.1164291 0.062998734 -0.14762786 0.09783417 -0.114784576 0.012374353
0.056282602
00000000: cf26 143e e4a8 e83d 6172 ee3d 7b05 813d
00000010: c22b 17be 485d c83d 2d14 ebbd ccbd 4a3c
00000020: 9688 663d

stage1.0.conv3x3_2.bns.0.running_var f4 [9]
0.009021662 0.00060157495 0.0009123005 0.0050268522 0.0023180223 0.0013640133 0.00042050652 0.0015579885
0.00094639335
00000000: 98cf 133c 03b3 1d3a 7327 6f3a 4bb8 a43b
00000010: f6e9 173b b1c8 b23a 6e77 dc39 6b35 cc3a
00000020: 6217 783a

stage1.0.conv3x3_2.bns.1.weight f4 [10]
0.0085921 0.012066783 0.0065810964 0.014362359 0.006757053 0.010376586 0.013437071 0.012667853
0.019171515 0.01445725
00000000: e1c5 0c3c c2b3 453c 3da6 d73b 1a50 6b3c
00000010: 456a dd3b 8e02 2a3c 2927 5c3c d48c 4f3c
00000020: 950d 9d3c 1ade 6c3c

stage1.0.conv3x3_2.bns.1.bias f4 [10]
0.015528883 0.013222296 0.01653323 -0.006281106 0.013124413 0.0076084794 0.004184449 -0.0012851373
0.0008877079 0.0160514
00000000: db6c 7e3c 54a2 583c b270 873c bcd1 cdbb
00000010: c707 573c 8d50 f93b b41d 893b 0d72 a8ba
00000020: 12b5 683a 3a7e 833c

stage1.0.conv3x3_2.bns.1.running_mean f4 [10]
-0.013498063 -0.069369584 -0.008739039 -0.08174193 -0.026709681 0.020845694 -0.075872414 0.00052625453
-0.12854244 -0.15877333
00000000: fb26 5dbc a411 8ebd 302e 0fbc 5068 a7bd
00000010: 43ce dabc 97c4 aa3c ff62 9bbd 58f4 093a
00000020: a1a0 03be 7a95 22be

stage1.0.conv3x3_2.bns.1.running_var f4 [10]
0.00053899793 0.00021539723 0.00018310583 0.00033541027 0.00030720112 0.0006602493 0.0015235536 0.00043170134
0.0014821513 0.00036570086
00000000: 8a4b 0d3a 41dc 6139 1900 4039 01da af39
00000010: d60f a139 9514 2d3a fab1 c73a f955 e239
00000020: bf44 c23a 8abb bf39

stage1.0.conv3x3_2.prelus.0.weight f4 [9]
8.131936e-05 0.00031856366 -6.556998e-05 -0.00079866813 0.00035473032 -0.00017783647 -0.0007231898 0.00024008768
0.0016548448
00000000: 008a aa38 e404 a739 9d82 89b8 b65d 51ba
00000010: 19fb b939 9d79 3ab9 7294 3dba 0cc0 7b39
00000020: 61e7 d83a

stage1.0.conv3x3_2.prelus.1.weight f4 [10]
0.0012209606 0.0015932674 0.0010095264 -0.008342353 -0.0001051323 9.062249e-05 0.0022439708 -0.0020860548
-0.0038955226 0.0024872413
00000000: a408 a03a 2fd5 d03a 1652 843a 5dae 08bc
00000010: 797a dcb8 940c be38 950f 133b 31b6 08bb
00000020: 064c 7fbb fc00 233b
