CSNet/checkpoints/csnet-L-x2/csnet-L-x2.pth.tar (torch_old, 743507 bytes, 630 tensors)

stage0.0.conv1x1.conv.weight f4 [23, 3, 3, 3]
000000 ac 15 02 bc f2 f2 95 bc ee e8 29 bc 2e ab ec bb
       -0.007939737 -0.018304322 -0.010370476 -0.0072225546
000010 d6 b5 41 bc 2f 96 4f bc 33 05 53 bc eb c0 dc bb
       -0.011823138 -0.012670084 -0.012879658 -0.006736865
000020 62 09 c1 bb 4a 47 b2 3b 1b 27 6f bc 08 4e 1a bc
       -0.005891011 0.005440627 -0.014596726 -0.009418018
000030 86 5e 20 3b a6 c0 74 bb c8 ac f2 bb d2 e8 2b bb
       0.0024470403 -0.0037346273 -0.007405851 -0.00262313
000040 68 cd 8a 3b 9e 30 0c 3b c7 86 15 3c ae 6a 57 bc
       0.004235912 0.0021391283 0.009126372 -0.013147993
000050 49 35 cc bb 5a 75 4b 3c 11 62 6d bb 57 e7 c9 ba
       -0.006231938 0.0124181155 -0.0036221782 -0.0015404028
000060 a6 a9 ad ba 25 28 38 3c 60 c1 f5 3b 4e ed 91 bd
       -0.0013249412 0.01124004 0.0074998587 -0.071253404
000070 af 10 1d 3d f7 55 14 bd 9f 39 fa bc 99 83 48 bd
       0.03834599 -0.036214795 -0.030545054 -0.048953626
000080 69 fc 2e 3d 9f 6a b7 3c d1 4c b8 bd 05 d3 b6 bd
       0.042721186 0.022389708 -0.089990266 -0.089269675
000090 60 71 97 3d c1 4c 18 bc 2e 6a 0b bc 31 8c 57 3d
       0.073946714 -0.009295643 -0.008509202 0.05262393
0000a0 b0 0d b5 3d 02 a4 75 3d 89 ab 0c 3d 35 77 cc 3d
       0.08840501 0.059970863 0.034343276 0.099836744
0000b0 81 d2 67 3d 10 31 87 3c f3 6b 80 bd 58 08 a6 3c
       0.056597237 0.016502887 -0.0627059 0.02026765
0000c0 09 93 17 bd 7a 27 9d 3c 30 3a 56 bd c6 5f 1a bd
       -0.037005458 0.019183863 -0.052301586 -0.037688993
0000d0 6b d0 80 bd cd 50 00 3d d9 28 8d 3c 5b 1f 8a ba
       -0.062897526 0.031327058 0.017231392 -0.0010537909
0000e0 52 96 f9 bc a9 92 93 bc 84 7f c5 bb 5b 01 c5 3c
       -0.030467186 -0.018014269 -0.006027164 0.024048498
0000f0 e9 f5 c8 bb e4 9d ce 3c 3b ea b9 bc 62 82 16 bc
       -0.0061328304 0.025221772 -0.022694698 -0.009186359
000100 04 ab 7c bc 4b 39 bb 3c 54 20 23 bc 8d ac d1 bb
       -0.015421633 0.022854468 -0.009956438 -0.0063987435
000110 c5 38 3f 3c 87 2d c6 3b a7 11 bd bb c3 64 26 3b
       0.01167125 0.0060479078 -0.0057699266 0.0025389649
000120 60 94 23 3c 37 8b 74 3c 38 43 b2 3c 34 aa 8a 3c
       0.009984106 0.0149257695 0.021760568 0.016926862
000130 ae 61 a3 3c 4a 99 98 3c 8a 1c b2 3c 54 3e d5 3c
       0.019944038 0.018627781 0.021742124 0.026030697
000140 0a a8 8a 3c cb 9d 19 3c 41 30 18 3c 74 72 b3 bc
       0.01692583 0.009376 0.009288848 -0.021905161
000150 df 56 08 3d 54 a5 63 3c 0b 60 29 3d df 1e ab bc
       0.03328597 0.013894398 0.04135136 -0.020888744
000160 d1 31 6b 3c f5 b8 2b bd 20 5a 16 bd 49 68 ab bc
       0.014355139 -0.041924436 -0.036707044 -0.02092375
000170 61 ff 9e 3c 27 db 47 bd 0f 58 20 bd 3a 36 b7 3c
       0.019408884 -0.048792984 -0.03914648 0.022364724
000180 da fb 23 bd 6f ef 09 bb f8 e5 0e bd e0 9a ff 3c
       -0.040035106 -0.0021047255 -0.034887284 0.03120178
000190 ba eb 60 3a 83 dc 65 3b f4 19 ec 3c 52 db b8 bc
       0.0008580048 0.0035074062 0.02882097 -0.022565518
0001a0 74 f1 d7 3c 0a 1d 2b 3d de f8 00 3d 16 5c 6c bc
       0.026360251 0.04177574 0.03148734 -0.014426252
0001b0 7a 54 8f bc 86 f1 f3 39 62 60 39 3c 76 55 80 3c
       -0.017496336 0.0004652852 0.011314483 0.015665751
0001c0 62 64 36 b9 24 6e ea 3c e1 dd 5e 3b 22 2e 51 bb
       -0.00017394268 0.028616972 0.0034006762 -0.0031918366
0001d0 65 8a 40 39 0d 0a d1 ba cc fa 08 bd cf b9 9c 3c
       0.00018362103 -0.001594843 -0.033442304 0.01913157
0001e0 63 c5 c4 bb 6c 95 bc 3b e7 7c 35 3d 3a 64 99 3c
       -0.0060049756 0.005755117 0.04430857 0.01872455
0001f0 66 a2 e1 bb 2e 43 be 3c 3c 30 30 bb 7a 53 f5 3b
       -0.0068858145 0.023225393 -0.0026884219 0.007486758
000200 87 1d 34 3c 07 b8 15 3c 58 1f be ba 92 b3 ba 3c
       0.010993368 0.009138114 -0.0014505191 0.022790704
000210 11 d9 20 bc 97 f0 8e bb a8 80 15 bc fc e8 07 3c
       -0.009817378 -0.0043621766 -0.009124912 0.008295294
000220 3d 2a fe 3c 59 25 c1 3c e9 27 9c 3c 8a 40 1a 3d
       0.031026 0.023577379 0.019062 0.037659205
000230 4f 83 1a 3d 2e 85 09 3c 22 bd 05 3d 3b 67 86 3c
       0.037722882 0.008393569 0.032651074 0.016406646
000240 f1 41 3b bb 04 15 93 bc 96 dc 47 ba 05 42 05 3c
       -0.002857324 -0.017954357 -0.00076241174 0.008133416
000250 0c 9b 1a bc a5 67 f7 bb 29 0b c6 bb 5e c5 7d bc
       -0.00943638 -0.007550197 -0.006043811 -0.015488951
000260 0a 23 8d bb d5 a4 33 bb 42 d8 64 bc bd 6a b4 bc
       -0.0043071555 -0.002741148 -0.0139675755 -0.022023553
000270 e4 29 92 bb 28 d9 c6 bc f1 65 9e bc 2e 73 37 bc
       -0.00446056 -0.02427347 -0.019335719 -0.011196895
000280 38 a3 4d bc a1 6f 00 bc 5b cb 18 3c 76 18 b9 3b
       -0.012551121 -0.007839114 0.0093258275 0.005648668
000290 95 56 cc bb 37 c5 20 3c 47 82 2b bc d5 0e 8c 3a
       -0.0062359073 0.009812645 -0.010468072 0.0010685573
0002a0 a6 0e 07 3c b6 6f 6c 3a 03 44 f9 bb ed 18 9a 3a
       0.008243239 0.0009019332 -0.0076069846 0.0011756696
0002b0 ba ff 01 bc 66 91 c1 bb 1e 5e e1 3b 0d cf 59 bc
       -0.007934505 -0.0059072254 0.0068776747 -0.013293994
0002c0 2c 38 87 3a 77 b5 a4 bc 87 7e 45 bc 51 fe 8b bc
       0.0010316423 -0.02010606 -0.012054092 -0.017089041
0002d0 65 af 5a 3c 61 ed 8c 3c be cf 7a 3c 62 7d 71 3b
       0.013347481 0.017203035 0.015308319 0.0036848416
0002e0 7e f0 d7 3c 51 be fc ba 76 43 4e ba 26 46 6a 3c
       0.026359793 -0.0019282793 -0.0007868329 0.014298951
0002f0 09 3e 9a 3c 29 d5 be 3c ac 7d 9d bc b1 18 0f bd
       0.018828409 0.023295002 -0.019224964 -0.034935657
000300 33 2c 5d 3c 19 8a 19 bc c0 ee 1e bc 05 e5 d6 bb
       0.013499307 -0.009371304 -0.009700477 -0.006558063
000310 4a f7 e6 3b 22 59 83 3c 8b d2 b9 3c ea 90 ca bc
       0.007048522 0.016033713 0.022683403 -0.024727304
000320 0a 90 1d bd 5e ea 1b 3c d3 a7 04 bc 3b 01 55 bc
       -0.038467444 0.009516327 -0.008096653 -0.013000782
000330 41 ab 3a 3b e6 f9 c5 3c 6c f6 b3 3c 0e 9b 18 3c
       0.0028483423 0.024167012 0.021968089 0.009314312
000340 6a 79 fc ba f5 7e b7 bc 5a 3c 34 3b 03 6e bd 3a
       -0.0019262258 -0.022399405 0.0027501793 0.0014452342
000350 ff 31 64 bc b9 bc e6 3b 68 e7 18 bc f2 30 2d 3c
       -0.013927936 0.0070415405 -0.009332515 0.0105707515
000360 b9 f7 89 bb 35 42 21 3a 21 9a 27 bc 12 05 2d 3c
       -0.004210439 0.0006151528 -0.010229618 0.010560291
000370 b6 ed bc 3b f2 29 0f 3b 68 d2 b2 3c 8a ff 00 3d
       0.005765642 0.002184507 0.021828845 0.0314937
000380 17 06 36 3c 95 c5 0b bb 75 cf fa ba 58 c3 3a bc
       0.01110985 -0.0021327485 -0.0019135313 -0.011399113
000390 50 af 89 3c d6 bc 4f 3c 78 bd 05 bc b2 67 94 3c
       0.016807228 0.012679299 -0.008162849 0.018115852
0003a0 b4 8d 4c 3c ce a3 69 3a 0b f5 92 3a b6 7a c4 3a
       0.0124849565 0.00089126534 0.0011211945 0.0014990184
0003b0 23 d3 c7 3b 5b f0 53 39 45 da 0a 3c 4f 4a 2b bc
       0.0060981675 0.00020212067 0.008474891 -0.010454728
0003c0 c8 04 20 3c bd ad 3c 3b 97 a2 f4 3b 90 06 00 00
       0.009766765 0.002879008 0.0074656713 2.354e-42
0003d0 ee 04 00 80 68 01 00 00 a4 01 00 00 d2 04 00 00
       -1.768e-42 5.04e-43 5.89e-43 1.729e-42
0003e0 a5 01 00 80 ab 01 00 80 38 01 00 80 fe 05 00 00
       -5.9e-43 -5.98e-43 -4.37e-43 2.15e-42
0003f0 ff 00 00 00 04 06 00 80 13 02 00 00 e3 05 00 80
       3.57e-43 -2.158e-42 7.44e-43 -2.112e-42

stage0.0.conv1x1.bns.0.weight f4 [13]
000000 03 cc 85 3c 13 3c 04 3c e4 dd b0 3b 9c eb 94 3b
       0.016332632 0.008070963 0.005397545 0.0045446884
000010 59 ec dc 3b 9e 55 01 3c e7 2f 82 3b 87 df e5 3b
       0.006742042 0.007893948 0.0039729956 0.007015172
000020 9b d7 b0 3b e5 b1 a2 28 ba 56 aa 3b cd 47 ca 3b
       0.005396796 1.8062762e-14 0.005198327 0.00617311
000030 66 87 8d 3c
       0.017276477

stage0.0.conv1x1.bns.0.bias f4 [13]
000000 62 33 63 bc b5 36 4c 3c d0 ef 2c 3c 70 c2 79 3c
       -0.013867231 0.012464215 0.010555223 0.015244111
000010 36 6b 84 3c 2b 0f 55 3c 79 a6 fa 3b 29 f1 6b 3c
       0.016164403 0.013004105 0.0076492396 0.014400759
000020 02 d3 46 3c 07 03 00 00 77 27 5c 3c 7b 86 88 3c
       0.012135269 1.086e-42 0.0134371435 0.016665688
000030 fe 78 92 bc
       -0.01787996

stage0.0.conv1x1.bns.0.running_mean f4 [13]
000000 72 43 84 ba be f1 42 3c d1 20 46 bc ce 16 16 bc
       -0.0010090901 0.011898456 -0.012092785 -0.0091607105
000010 51 16 dc ba ab 95 0b 3c 7a 79 fb bb 8e 5b 9c 3a
       -0.0016791319 0.00851957 -0.0076743932 0.0011929141
000020 03 75 03 bb 31 00 00 80 df 3f f8 3a 6b b4 8e 37
       -0.0020058758 -6.9e-44 0.0018939934 1.7011733e-05
000030 38 ea 84 3b
       0.0040562414

stage0.0.conv1x1.bns.0.running_var f4 [13]
000000 b3 b5 7d 3c cf fc 0c 3d a9 7f 13 3d 77 f2 04 3c
       0.015485215 0.034420785 0.036010418 0.008114449
000010 3d 4e ad 3c 77 53 cc 3c 58 c6 d8 3b 35 0b 92 3b
       0.021155471 0.024942143 0.0066154413 0.0044569024
000020 f9 9a c1 3c 04 00 00 00 c5 9e 86 3b db 61 ae 3a
       0.023633467 6e-45 0.0041082823 0.001330431
000030 4d 8c c7 3c
       0.024358893

stage0.0.conv1x1.bns.1.weight f4 [10]
000000 20 4e 7c 3b e3 a1 a7 3b 91 72 e8 3b f7 2e 64 3b
       0.0038498715 0.005115734 0.0070937355 0.0034818032
000010 e2 be 90 3b bb 00 c6 3b d5 04 64 3b 1b 5e dd 1f
       0.0044172863 0.0060425675 0.003479292 9.3752825e-20
000020 cb bd 6d 3b 89 dd e8 3b
       0.0036276456 0.007106487

stage0.0.conv1x1.bns.1.bias f4 [10]
000000 6d 79 0d 3c b9 cd 4a 3c f8 64 7c bc 9e e5 18 3c
       0.008634907 0.01237815 -0.015404932 0.009332089
000010 82 74 31 3c 4d 0e 3a 3c 5e c9 c2 3b 76 01 00 00
       0.010831 0.011355949 0.005944415 5.24e-43
000020 3a f3 f3 3b fa 49 ab 3a
       0.0074447664 0.0013068311

stage0.0.conv1x1.bns.1.running_mean f4 [10]
000000 8f 89 e1 3b 75 03 e6 ba 0b a7 e9 3b 97 30 95 bc
       0.0068828533 -0.0017548638 0.007130509 -0.018211646
000010 7e 02 fa 3b 0f 21 85 bb c6 db 20 3c 93 02 00 80
       0.0076296916 -0.004062779 0.009818023 -9.23e-43
000020 bd d9 82 b9 09 08 27 3b
       -0.0002495776 0.0025486967

stage0.0.conv1x1.bns.1.running_var f4 [10]
000000 74 c4 3d 3b 23 12 26 3c d8 dc 7e 3c a8 05 9d 3c
       0.0028956207 0.01013616 0.015555583 0.019167736
000010 57 89 7b 3b f2 4c 05 3c 8b 56 79 3c 04 00 00 00
       0.0038381421 0.008136021 0.015218387 6e-45
000020 60 42 8b 3a 2d af c0 3b
       0.001062464 0.0058802576

stage0.0.conv1x1.prelus.0.weight f4 [13]
000000 59 96 20 3a 7f 1b 65 b8 fe 26 b2 b5 2b 14 4f 39
       0.0006125919 -5.4623462e-05 -1.3273382e-06 0.00019748572
000010 d3 e0 d8 b6 73 16 11 b7 55 04 d6 b7 98 09 03 3a
       -6.4634746e-06 -8.6479e-06 -2.5512805e-05 0.0004998683
000020 ef c1 99 b7 8c 05 00 80 99 5a ab 39 ef 6a 68 3a
       -1.8329329e-05 -1.99e-42 0.00032683162 0.0008866032
000030 24 56 0f 3b
       0.0021871412

stage0.0.conv1x1.prelus.1.weight f4 [10]
000000 e0 9e 24 39 20 f2 52 38 3e b4 22 3d 45 50 2e b6
       0.00015699444 5.0293398e-05 0.039722674 -2.5974743e-06
000010 d9 8a 82 39 67 b4 58 39 05 27 c3 b7 4f 00 00 80
       0.00024898982 0.0002066657 -2.3263981e-05 -1.11e-43
000020 53 bf 9e 38 4f 25 d8 38
       7.569664e-05 0.00010306632

stage0.0.conv3x3_1.convs.0.weight f4 [13, 1, 3, 3]
000000 2f d8 9a bb f8 64 21 3c 4b e0 e3 3a 51 17 8e bc
       -0.004725478 0.009850733 0.001738557 -0.017345103
000010 16 3a 2a 3c 52 df 8a 3c 3c 91 0a b9 ad b8 46 3c
       0.010389825 0.01695219 -0.0001321481 0.012128991
000020 54 ea 62 3c 17 b4 00 3c 50 6c 8d 3b bc 5f 27 bd
       0.0138498135 0.007855437 0.0043158904 -0.040862784
000030 4f 93 cc 3c 23 e5 49 3d 2e 82 a8 b9 af d4 48 3c
       0.024972586 0.049290787 -0.00032140448 0.012257739
000040 c1 56 c9 3c eb 8e d2 bc ad 9b 38 bc 56 31 c5 3c
       0.0245775 -0.025702914 -0.011267585 0.024071377
000050 f7 c0 bf 3b 3d ea 29 bc 70 df 5a bc 3d 5c 93 bc
       0.0058518606 -0.010370788 -0.013358936 -0.017988319
000060 05 da bc bc 20 d1 da bc 2e a4 b3 3c 02 18 11 bd
       -0.023053179 -0.026711047 0.021928873 -0.035423286
000070 91 0e 5b bd 35 ef 4d 3d 2d 59 fa 3c 0a 67 dd ba
       -0.05348069 0.050276954 0.0305601 -0.001689167
000080 68 b1 53 3c 52 6c a6 3c 3c be 9f 3c f6 3a 32 3c
       0.012920715 0.020315323 0.01949989 0.010878315
000090 89 ea fa bd e7 9c a3 bc bc 8d 24 bd 48 e7 98 bd
       -0.12251765 -0.019972278 -0.04017423 -0.074659884
0000a0 54 a8 46 3d f2 88 05 3e 4e 39 9d 3d 51 89 53 3d
       0.048500374 0.13040522 0.076769456 0.051644627
0000b0 f7 a6 51 bd 4d 32 02 bc f5 08 66 bc 75 e1 46 3c
       -0.05118462 -0.007946563 -0.014040221 0.012138714
0000c0 20 67 a4 bc 7c 05 d8 bc 9b 73 13 bc f5 6a dc 3b
       -0.020068705 -0.026369803 -0.00899973 0.0067266175
0000d0 21 c8 53 bc 2a 6c e2 3c 48 b2 53 3b ba fb 9b bb
       -0.012926132 0.027639467 0.0032302309 -0.0047602328
0000e0 d8 92 b3 3b 1d 29 7c 3b 08 eb 04 3c d4 d1 47 3c
       0.0054801516 0.0038476654 0.008112676 0.012196023
0000f0 5d d4 21 bb 10 9a 84 3c 67 63 2c 3c fd 2d 10 3d
       -0.0024693229 0.016186744 0.010521746 0.035200108
000100 96 b1 54 3d 5a 2f 8c 39 f2 b6 0f bd 8f 6c 69 bd
       0.05192717 0.0002673816 -0.03508658 -0.056988295
000110 e6 b9 a9 3c ce c2 61 bd 33 fb 00 bb c2 8f 2c 3d
       0.020718526 -0.05511742 -0.0019680976 0.042129286
000120 bf 59 bc 3d 8e 47 c3 bd 8f 8d 4a bd 1b ae 8b 3c
       0.09196805 -0.09535132 -0.049451407 0.017050793
000130 65 fd a8 bd 92 51 76 3c 06 c7 6f 3d 75 58 aa ba
       -0.08251456 0.015034096 0.058539413 -0.0012996333
000140 ff 26 36 3d 4d 06 00 80 82 01 00 80 ad 01 00 80
       0.044470783 -2.26e-42 -5.41e-43 -6.01e-43
000150 9c 01 00 00 64 00 00 80 eb 05 00 80 d1 01 00 80
       5.77e-43 -1.4e-43 -2.123e-42 -6.52e-43
000160 a9 05 00 00 3d 07 00 80 20 8e 78 bc 7b 45 a4 bc
       2.03e-42 -2.597e-42 -0.015170604 -0.020052662
000170 48 e6 9e 3c 5b b3 f7 3c 17 6d fb 3c e6 1d 3f bd
       0.019396916 0.03023689 0.030691667 -0.046659373
000180 72 ed 05 3d 28 ed 94 bc fa 2a a5 bb 98 49 56 39
       0.03269715 -0.018179491 -0.0050405236 0.00020436046
000190 79 d1 b5 3b d5 48 18 bb 50 1d 1a 3b 3b fd 55 3d
       0.0055486527 -0.002323677 0.0023516007 0.052243453
0001a0 57 a8 0c bc 6d 8b 3e bc f6 d6 75 bc c2 68 b9 3a
       -0.008585057 -0.011629921 -0.015004864 0.00141456
0001b0 dc 46 53 3b 45 a3 c1 3c e0 2d 14 3c 44 3a bd 3b
       0.003223828 0.023637423 0.009044141 0.005774768
0001c0 a1 04 d5 3c a3 05 42 3c b6 15 f2 bb 23 f1 a4 bb
       0.026003184 0.011842164 -0.007387842 -0.0050336285
0001d0 08 43 88 bc
       -0.016633525

stage0.0.conv3x3_1.convs.1.weight f4 [10, 1, 3, 3]
000000 05 70 b4 3a bd 41 0c ba 0b 80 d9 bb 93 84 aa bb
       0.0013766295 -0.0005350372 -0.0066375784 -0.0052037924
000010 2d 1e 07 3d d0 7d 2f bd b1 2d f3 3c b9 ec 84 3c
       0.032987762 -0.042844594 0.029684873 0.01622616
000020 19 e2 c3 bc aa 70 1d bd 36 fe cf 3b cc 27 ab 3c
       -0.023911523 -0.038437523 0.006347443 0.020893
000030 7f a1 f5 3c bf f5 5b 3c 8e 5a ad 3c bb 56 5f bd
       0.029984234 0.01342529 0.021161344 -0.054526072
000040 fe fe c7 3c 27 24 76 bb e8 d9 00 3c 3c 84 3e bb
       0.024413582 -0.003755817 0.007864453 -0.0029070517
000050 1e 09 d8 3a 3d 2b 57 bc 57 5d 08 bd dd d3 01 bc
       0.0016482209 -0.013132867 -0.03329214 -0.007924047
000060 3e 12 e2 3b ec e1 ef bb d7 2f b1 3b dd 2d a6 3b
       0.0068991473 -0.007320633 0.0054073143 0.0050713853
000070 e0 7b dc 3c 45 03 75 3b 5a 6e 74 3b 3a a1 f1 3c
       0.026914537 0.0037385982 0.003729722 0.029495824
000080 15 9d c3 ba cb e6 1f bc 4d 42 0f 3b 37 0a b6 bb
       -0.0014924133 -0.009759615 0.0021859587 -0.005555417
000090 d7 fa bf 3b 78 cf e8 3b d0 63 73 3c f2 1a 19 bd
       0.00585876 0.0071048103 0.01485534 -0.037379213
0000a0 51 b8 c3 3c 85 d9 96 3c bd 65 0d bd 56 cf 8d 3c
       0.0238916 0.018414268 -0.034520853 0.01731078
0000b0 dd 6d 8c bc 6c f4 2a bd 6e 2b 02 bc f4 a2 73 3d
       -0.01714223 -0.041737005 -0.007944925 0.059481576
0000c0 db 2e c9 3b 75 a8 9a bd 30 f8 2b 3d 13 06 eb bb
       0.006139619 -0.07551662 0.041984737 -0.007172355
0000d0 ca 6e 87 bc 20 55 23 3d f5 1d 27 3b dd 63 8d 3b
       -0.01653232 0.039876103 0.0025500034 0.004314883
0000e0 d9 40 b4 b7 50 0e 3b 3c 58 b4 89 3c 05 51 25 3c
       -2.148787e-05 0.011416987 0.016809627 0.010090117
0000f0 d5 1f 09 bb 97 0b bf 3b 99 39 03 bc f5 04 00 80
       -0.0020923514 0.005830239 -0.008009338 -1.778e-42
000100 03 05 00 80 5e 00 00 00 e1 05 00 80 17 06 00 00
       -1.798e-42 1.32e-43 -2.109e-42 2.185e-42
000110 51 05 00 00 28 00 00 00 ce 05 00 00 1a 00 00 00
       1.907e-42 5.6e-44 2.082e-42 3.6e-44
000120 30 40 a4 ba cd 5d 7f 3b 3f 79 1c 3b ec 14 8a bb
       -0.0012531336 0.0038965822 0.002387598 -0.00421392
000130 27 17 74 3c 2f 34 77 3c 75 6d 32 bc 96 51 a1 3c
       0.014898098 0.015088125 -0.010890354 0.019692224
000140 0c 85 11 3b ef 28 18 39 af 81 26 3c 88 1b 81 bc
       0.0022204546 0.00014511099 0.010162755 -0.015760198
000150 38 d0 2f 3b 7c 0b 89 3c 75 48 68 3c 73 69 08 bc
       0.002682699 0.016729109 0.014177431 -0.008325922
000160 d6 fc 3c 3c f9 b0 d8 3b
       0.01153489 0.0066128937

stage0.0.conv3x3_1.bns.0.weight f4 [13]
000000 65 c0 4d 3c ba 5d bd 3b a4 72 86 3c 12 01 77 3b
       0.012558077 0.0057789953 0.016412087 0.0037689847
000010 7d 48 8a 3b a4 8f 66 3c 90 cc 01 3c bf ab 8b bc
       0.004220067 0.0140723325 0.007922307 -0.017049668
000020 0b 59 3d 3c 73 d6 8b 29 db 99 cf 3b 43 39 a3 3b
       0.011556874 6.210041e-14 0.0063354797 0.0049811914
000030 66 9c 28 3c
       0.010291195

stage0.0.conv3x3_1.bns.0.bias f4 [13]
000000 e1 57 3b bc 21 43 1b 3c 39 68 44 bb 27 57 6d 3c
       -0.011434526 0.009476454 -0.0029969348 0.014486111
000010 bb 10 83 3c 01 98 01 bd dc cc 15 3c b1 f4 b7 3b
       0.015999189 -0.031639103 0.009143081 0.0056138863
000020 31 e7 80 3b d4 06 00 00 3d 4b 3c 3c 47 44 84 3c
       0.00393381 2.45e-42 0.011492548 0.016145838
000030 18 58 6f bc
       -0.0146084055

stage0.0.conv3x3_1.bns.0.running_mean f4 [13]
000000 7a 0a 01 3c d1 0a 95 3d e6 2b 5b bd 5d 03 a7 3d
       0.007876033 0.07277454 -0.05350866 0.08154938
000010 17 ed 17 ba d7 3d 6d bd 6d e4 23 3d 1a 73 71 3a
       -0.0005795522 -0.057920303 0.040012766 0.0009210572
000020 c7 dc 4a bb 00 00 00 00 62 ac 2d 3c 7c 76 27 3d
       -0.0030954347 0.0 0.010600181 0.04088448
000030 dd 41 8f 3b
       0.004371865

stage0.0.conv3x3_1.bns.0.running_var f4 [13]
000000 92 a0 9b 39 76 31 e5 3a ea f8 4c 3a 2a 4d 45 3a
       0.00029683538 0.0017486054 0.00078190735 0.0007526452
000010 c9 3c 21 3b 1d 74 92 3a 4f 67 d5 39 88 ba 36 3b
       0.0024602881 0.001117352 0.00040703497 0.0027882177
000020 dc a4 47 3a 04 00 00 00 9f af 7d 39 54 39 24 3a
       0.00076158135 6e-45 0.00024193384 0.0006264646
000030 55 91 11 39
       0.00013882418

stage0.0.conv3x3_1.bns.1.weight f4 [10]
000000 19 0e ad 3b 51 7c 17 3b 84 f6 66 3c d9 c8 d1 3b
       0.0052812216 0.002311487 0.01409686 0.0064021167
000010 3f ca be 3b 9b 73 ac 3b e6 34 11 3c be bf 21 a4
       0.0058224495 0.0052628047 0.00886271 -3.5073722e-17
000020 9b b7 87 3b 8f f5 93 3b
       0.0041417605 0.004515357

stage0.0.conv3x3_1.bns.1.bias f4 [10]
000000 16 d9 a2 3b 54 dd 39 3c f2 1d 80 3b 7a c4 7d 3c
       0.0049697263 0.011344273 0.0039098198 0.015488738
000010 f7 a1 6d 3b c3 32 f6 3b ae 16 a8 3b 40 00 00 80
       0.0036259869 0.0075133755 0.0051296568 -9e-44
000020 a5 72 27 3c be 1b c7 3b
       0.0102202045 0.006076305

stage0.0.conv3x3_1.bns.1.running_mean f4 [10]
000000 dd 1e a0 3a dd e4 cb 3c 72 31 03 3b 6a 04 4f 3d
       0.0012216229 0.024889404 0.0020018485 0.05054132
000010 50 e9 a1 ba a3 9c 3b bb a2 89 c6 3c 00 00 00 00
       -0.0012352858 -0.0028627298 0.02423555 0.0
000020 c8 68 00 3d e5 c2 63 3c
       0.031349927 0.013901447

stage0.0.conv3x3_1.bns.1.running_var f4 [10]
000000 c0 87 c1 38 ea c8 96 39 b1 a5 e6 37 5d 5e c3 39
       9.2282426e-05 0.00028759922 2.7495293e-05 0.00037263604
000010 50 ec 10 39 7f d7 2b 3a 34 93 4f 39 04 00 00 00
       0.00013820943 0.0006555244 0.00019795896 6e-45
000020 3a 77 2a 39 27 43 9a 39
       0.00016256879 0.000294232

stage0.0.conv3x3_1.prelus.0.weight f4 [13]
000000 bd 0e b3 3b 6f 08 04 b8 b1 13 e6 3c dc 81 b3 b7
       0.0054644034 -3.1479107e-05 0.028085561 -2.1398933e-05
000010 9b c9 a1 39 ee 4e 73 3d 02 75 3a b9 31 03 a3 3c
       0.0003085852 0.059401445 -0.00017781931 0.019898983
000020 7c 37 e0 3a 11 05 00 00 d6 b8 45 39 87 07 b3 39
       0.0017106379 1.817e-42 0.00018856241 0.0003414715
000030 10 c5 a7 3a
       0.0012799818

stage0.0.conv3x3_1.prelus.1.weight f4 [10]
000000 a0 01 e4 b9 78 43 11 36 a7 6f c2 ba 70 cb 69 37
       -0.0004348876 2.1645956e-06 -0.00148343 1.3935249e-05
000010 a5 e9 b3 36 11 d4 4c 39 9e 97 ca 38 0f 00 00 80
       5.3618155e-06 0.00019533957 9.6603515e-05 -2.1e-44
000020 ba c1 a9 37 01 99 36 b7
       2.023658e-05 -1.0883669e-05

stage0.0.conv3x3_2.convs.0.weight f4 [13, 1, 3, 3]
000000 c2 db 03 bd 8c b3 ea 3c be f8 3e bc c2 69 ad bc
       -0.032192 0.028650068 -0.011655984 -0.021168593
000010 93 2f 9f bb a9 71 fe 3b ff af 17 3d 7d 85 84 3c
       -0.004857966 0.007765014 0.037033077 0.016176933
000020 4e b3 54 3c 89 74 e1 bb 56 3e 97 3c 13 08 d3 3c
       0.012982203 -0.006880347 0.018462341 0.025760686
000030 34 d8 d6 3c 83 0c 99 3c f5 47 82 3b 7b 96 b2 bc
       0.02622614 0.018682724 0.003975863 -0.02180027
000040 85 f7 8b 3c 81 49 cf 3b 89 45 54 3b 8a 91 b9 bc
       0.0170858 0.006325901 0.003239008 -0.022652406
000050 3c 71 47 bc bb b8 f6 3b c2 40 64 bc 1b f1 7d bc
       -0.012172993 0.007529346 -0.013931455 -0.015499379
000060 b6 24 79 3b 6a 68 4b ba 3f 15 18 ba a6 f3 14 3c
       0.0038016266 -0.00077593944 -0.0005801506 0.009091293
000070 a5 c6 a5 3b 96 d9 8b 3b b9 98 69 3d 4a ad 2d 3b
       0.0050590807 0.0042678816 0.057030413 0.0026500993
000080 3c 1c 92 bb 06 f1 0a bd 93 d4 14 bc 1f 70 23 3c
       -0.004458932 -0.033921264 -0.009083885 0.009975462
000090 40 4c 82 3b eb 16 50 b9 5d 76 ed ba a6 e0 2c 3c
       0.003976375 -0.00019844963 -0.001811694 0.010551607
0000a0 79 54 08 3d fe 63 af bc 87 10 e6 bb cb 4b 4a 3d
       0.033283684 -0.021409985 -0.007021013 0.049388688
0000b0 ac 31 76 3b b7 78 70 3c d1 2b 8f 3b 11 c4 d5 3b
       0.0037566228 0.014677218 0.004369237 0.006523617
0000c0 9f a2 ff 3b 61 78 33 bc 77 ec ce bc 2e b7 e0 3b
       0.0078013684 -0.010953994 -0.02525924 0.006857774
0000d0 4e a9 d5 bc b8 e5 24 bd 89 04 0b bd ff 3d df bc
       -0.026081707 -0.04025814 -0.033939872 -0.027251242
0000e0 ab a1 30 3d 3c e4 e3 ba ff ef a3 bc 36 fe 62 3d
       0.04312293 -0.0017386745 -0.0200119 0.055418216
0000f0 64 ef a4 bc 1f d7 40 bc 1e 61 91 3c 08 52 0a 3b
       -0.020133682 -0.011770039 0.017746504 0.0021106023
000100 ae 5d 31 bc 14 a3 9a 3b ae b4 63 bc 81 07 47 bd
       -0.010825558 0.0047191475 -0.013898058 -0.04859114
000110 93 d8 3f bc 21 f9 0d 3a 38 00 30 bc 57 88 8f 3b
       -0.01170935 0.0005415846 -0.01074224 0.0043802666
000120 ad f4 81 3b 32 d7 2d 3c 6e 54 43 3c e0 59 9c bb
       0.003965935 0.010610389 0.011921985 -0.004771456
000130 8b 82 bc 3c 5e d5 b6 3c f2 13 2d bc 94 fc db b7
       0.023011466 0.022318538 -0.010563837 -2.622445e-05
000140 1f e8 9c 3c 9d 05 00 80 cd 04 00 00 2a 07 00 80
       0.019153653 -2.014e-42 1.722e-42 -2.57e-42
000150 d6 06 00 80 7b 05 00 00 0a 02 00 80 de 05 00 00
       -2.452e-42 1.966e-42 -7.31e-43 2.105e-42
000160 6a 03 00 80 81 01 00 80 0f da b1 3c 9d 61 06 bc
       -1.225e-42 -5.4e-43 0.021710424 -0.008201984
000170 b0 a7 7e bc b7 31 37 3d 74 64 f4 3a b1 ad 18 bc
       -0.0155429095 0.044725146 0.001864566 -0.009318755
000180 60 25 4a bc a7 31 45 bc 61 3d 07 bc 78 85 9c 39
       -0.012338012 -0.012035764 -0.00825438 0.0002985408
000190 d3 fe 66 bc 70 f4 0c bd 65 63 59 ba 4e 36 c6 bb
       -0.014098841 -0.0344128 -0.0008292704 -0.006048954
0001a0 8c 5e 48 3d 7c a5 1b bb a6 ec bb bc 5c 23 0c 3d
       0.048918292 -0.002374976 -0.022939991 0.03421341
0001b0 9c 6e ef bb a1 f3 6d bb 70 9a 55 bb d4 ff 3e bb
       -0.007306887 -0.0036308544 -0.0032593273 -0.0029144185
0001c0 bc 10 66 3c 4c 88 51 3c ee c4 5e bb 75 eb 2d 3c
       0.014042076 0.012788843 -0.003399189 0.010615219
0001d0 e1 2d cd 3c
       0.02504629

stage0.0.conv3x3_2.convs.1.weight f4 [10, 1, 3, 3]
000000 77 e6 20 bc d2 70 52 bb b9 96 83 bb 5c 57 45 bb
       -0.009820572 -0.0032110703 -0.0040157703 -0.0030111885
000010 d2 a6 e8 bb 7d 95 a9 bb 69 15 01 3c dc f6 20 3b
       -0.0070999647 -0.005175291 0.00787864 0.0024561202
000020 17 85 47 bb 61 02 fe 3b 96 92 70 3c 11 df 9e bc
       -0.0030444318 0.0077517484 0.014683386 -0.019393476
000030 75 c2 6f 3c 87 1b a0 3c 64 76 fb 3a a8 da 0c 3c
       0.0146337645 0.019544376 0.0019185063 0.008597054
000040 67 9a 9f bb ef 1a 41 bc de 79 11 bb 24 64 15 3d
       -0.004870701 -0.011786207 -0.0022197883 0.036472455
000050 b0 3a 0f bd 80 52 2d 3c 2d 5a e6 3c 9b 29 4b 3c
       -0.034968078 0.010578752 0.028119171 0.012400056
000060 5a 5c ac ba 88 56 cf 3c 23 eb 03 bd 24 f7 db bc
       -0.0013150082 0.025309816 -0.032206666 -0.026851244
000070 e0 c9 ed 3c 15 b5 b6 bb 14 36 f4 bc 67 0e d2 bc
       0.029026926 -0.005575786 -0.029810943 -0.025641633
000080 df 33 27 3d ac 8e 43 bd d6 22 e4 3c 0c 37 1f 3d
       0.040820953 -0.047743484 0.027848642 0.038870856
000090 08 d7 d1 3b 93 d9 9d bb c9 f4 16 bb 4a 6a b2 3b
       0.0064038076 -0.0048171966 -0.0023034087 0.0054447995
0000a0 c0 91 f7 3b a9 9f c4 3c 74 50 08 bc ce 97 06 ba
       0.0075552166 0.024001913 -0.008319963 -0.0005134315
0000b0 80 8e 45 3c 9e ee ac bb 5b a3 14 3c f8 47 94 bb
       0.0120579 -0.005277469 0.00907215 -0.004525181
0000c0 ab fd 4b 3c 1e 2e e9 3c e2 96 93 3b 11 12 91 bb
       0.012450616 0.028464373 0.0045040706 -0.0044272025
0000d0 02 4f 11 3b 33 e1 bb 3a a5 04 62 bb d8 9c 27 3c
       0.0022172336 0.0014334082 -0.0034487632 0.010230266
0000e0 3f 18 50 3c 51 b0 21 bb a4 34 6b 3c dc 4d 80 3c
       0.012701093 -0.0024671743 0.014355812 0.015662126
0000f0 1e f7 bc bb 7e b2 af 3a be 66 8d 3a 1c 00 00 00
       -0.0057667634 0.0013404635 0.0010788066 3.9e-44
000100 0a 04 00 00 08 05 00 80 a2 01 00 80 45 06 00 80
       1.449e-42 -1.805e-42 -5.86e-43 -2.249e-42
000110 e1 02 00 80 b3 01 00 80 be 01 00 80 79 05 00 00
       -1.033e-42 -6.1e-43 -6.25e-43 1.963e-42
000120 ad 53 fa 3b 45 f1 d8 3c 88 14 27 3c a1 15 95 39
       0.0076393695 0.026482234 0.010197766 0.0002843561
000130 89 a0 dc 3b 4e 75 f4 bb a7 d9 30 bc 55 98 3b bc
       0.0067330045 -0.007460273 -0.01079408 -0.011449893
000140 71 4c 37 bc 86 7c d9 3b 89 ca 4b 3b 1d 8a 3a bc
       -0.011187659 0.006637159 0.0031096062 -0.011385468
000150 b3 f0 89 3c c9 3d bc 3b cb 48 02 bc b9 a2 d1 3b
       0.016838407 0.00574467 -0.0079519255 0.006397572
000160 d5 f6 8f 3c cf 9b 64 bb
       0.017573753 -0.0034882908

stage0.0.conv3x3_2.bns.0.weight f4 [13]
000000 61 eb d5 3b aa fd 99 3c ff 4e 20 3c ec be 21 3c
       0.0065283035 0.018797714 0.009784459 0.0098721795
000010 ab ca 92 3c 06 71 a1 3c 39 63 f1 3b 5a 16 9b 3c
       0.017918905 0.019707214 0.0073665646 0.018931556
000020 ec 4d 41 3c fd 05 00 80 c3 69 45 3c f3 ee 54 3c
       0.011798363 -2.148e-42 0.012049141 0.012996423
000030 4f fa 0b 3c
       0.008543565

stage0.0.conv3x3_2.bns.0.bias f4 [13]
000000 4d 3b 09 3c 4d 98 ac 3c 9c 88 e4 3c b9 04 99 3c
       0.008375955 0.021068716 0.027897172 0.01867901
000010 5a c6 0c 3c 7a 9b bb 3c ca c1 c1 3b 72 97 46 3b
       0.008592213 0.022901285 0.005912994 0.003030267
000020 f3 2c 61 3c 00 10 02 80 26 fe 52 3c 40 9f be 3c
       0.013743627 -1.89411e-40 0.0128779765 0.023269296
000030 a0 84 88 39
       0.00026038755

stage0.0.conv3x3_2.bns.0.running_mean f4 [13]
000000 13 47 f3 3b a9 3f ab 3d 3c 7c d1 bc 61 15 72 3d
       0.007424244 0.083617516 -0.025571935 0.05910242
000010 f2 1d e6 3d da c9 3f 3c 5c af 8b 3a 8b 1f 94 bd
       0.1123618 0.01170584 0.001065712 -0.07232579
000020 28 a6 33 3d 00 00 00 00 f7 46 2e 3b a6 31 92 3b
       0.04385963 0.0 0.0026592591 0.004461485
000030 5d 23 aa 3b
       0.005192204

stage0.0.conv3x3_2.bns.0.running_var f4 [13]
000000 13 de 18 3a b7 64 17 3b 90 c5 a1 3a e3 de 96 39
       0.00058314315 0.0023100802 0.0012342203 0.00028776293
000010 98 62 1e 3a 07 67 f2 37 36 af a2 39 27 a1 ec 3b
       0.00060419133 2.8896624e-05 0.0003102959 0.0072213593
000020 fd 22 0a 3b 04 00 00 00 14 fe 84 3a ec 0c 9c 3a
       0.0021077984 6e-45 0.0010146522 0.0011905706
000030 3a 59 bf 39
       0.00036496838

stage0.0.conv3x3_2.bns.1.weight f4 [10]
000000 4c 75 99 3b 59 d6 a7 3b aa 32 2c 3c 16 35 4c 3c
       0.0046831723 0.005121988 0.010510126 0.012463829
000010 7e 4d e8 3b 4a cd 32 3c 5d 27 22 3c 3c 00 00 80
       0.007089316 0.010913203 0.00989708 -8.4e-44
000020 0c 2b c4 3b f2 6f fa 3b
       0.005986577 0.0076427395

stage0.0.conv3x3_2.bns.1.bias f4 [10]
000000 20 f7 ba 3b 79 79 9f 3b 1d 80 29 3c 8e d4 77 3c
       0.005705729 0.0048667756 0.010345486 0.015126361
000010 6c 6f 97 3a a1 e4 07 ba f5 4a a4 3b 90 5a 00 80
       0.0011553592 -0.00051839097 0.0050138184 -3.2488e-41
000020 a1 54 d6 3b a6 11 29 3b
       0.0065408503 0.0025797873

stage0.0.conv3x3_2.bns.1.running_mean f4 [10]
000000 23 ae 56 bc fc 53 12 3d 3f ff bd 3c 54 bd ff 3a
       -0.013103041 0.035724625 0.023193 0.001951138
000010 a9 82 7b 3c 64 60 0d 3d aa d4 ea 3c 00 00 00 00
       0.015350976 0.034515753 0.02866586 0.0
000020 22 0d 31 3c 07 bd a5 3c
       0.010806354 0.020231737

stage0.0.conv3x3_2.bns.1.running_var f4 [10]
000000 18 0f 6c 38 0c a6 a4 38 a1 08 29 39 3d 52 64 3a
       5.628084e-05 7.851058e-05 0.0001612031 0.0008709764
000010 ec fd 46 39 0c fd 69 39 2e ba 74 3a 04 00 00 00
       0.00018977345 0.00022314879 0.0009335604 6e-45
000020 58 94 93 39 ab c9 82 39
       0.0002814855 0.00024945787

stage0.0.conv3x3_2.prelus.0.weight f4 [13]
000000 d5 3d 85 b9 87 88 17 bb 8c e0 69 38 1b 7a 24 3a
       -0.00025413805 -0.0023122148 5.5760655e-05 0.00062742986
000010 32 74 f6 3a 6a 32 a3 ba 52 7f be 38 62 c9 4d 3c
       0.001880294 -0.0012450938 9.083621e-05 0.01256022
000020 1e 66 7a b8 8c 05 00 80 5f 7d 8f b9 9b 69 81 3b
       -5.969975e-05 -1.99e-42 -0.00027368494 0.0039493567
000030 9b c6 61 38
       5.3829146e-05

stage0.0.conv3x3_2.prelus.1.weight f4 [10]
000000 72 de 06 ba 75 9d 20 ba 3c b6 a0 3a 74 2e 85 3a
       -0.0005144841 -0.00061269786 0.0012261341 0.0010160939
000010 16 64 cc ba 4d 5d b5 bb 57 ee 83 38 43 06 00 00
       -0.0015593793 -0.005534804 6.290961e-05 2.246e-42
000020 2d 12 bb ba 3c 57 c7 39
       -0.0014272385 0.00038021232

stage1.0.conv1x1.conv.weight f4 [25, 23, 1, 1]
000000 42 92 94 bc 71 bd 71 3c 3a 48 cf 39 07 b4 64 bc
       -0.018136147 0.014754639 0.0003953593 -0.0139589375
000010 66 05 41 bb e4 c0 4e 3d 46 dd 0f 3c a1 5c de 3c
       -0.002945268 0.050476924 0.008780783 0.027143778
000020 30 5a b2 37 c4 02 00 00 cf 78 86 3b 34 4b d8 b9
       2.126125e-05 9.92e-43 0.004103757 -0.0004125476
000030 56 82 6f 3c b2 81 26 bc 30 4e 97 3c fd df 80 bb
       0.014618477 -0.010162758 0.0184699 -0.0039329515
000040 e0 52 34 3c 5e cc cd bb 36 96 ef ba 8d f6 9a 3c
       0.011006087 -0.006280466 -0.0018279019 0.018916393
000050 f4 05 00 00 66 54 1a 3b ac bb 4d 3c 23 7e 05 3a
       2.136e-42 0.002354884 0.0125569515 0.0005092343
000060 b6 5b 07 3b e2 85 bb 3c 48 95 d1 bc 2a 50 b3 3b
       0.002065403 0.022890989 -0.025583878 0.005472203
000070 82 52 a4 bb eb 9e 5b bc 95 76 0a bc a1 bb 30 3c
       -0.0050147185 -0.013404588 -0.008451124 0.010786922
000080 f8 04 00 00 96 6e 11 3b 30 3c 64 bc 09 7a cd 3b
       1.782e-42 0.0022191158 -0.013930365 0.0062706512
000090 9d b2 fd 3a 0d 35 93 bb a2 ae 21 3b eb 9a b8 ba
       0.0019355599 -0.004492408 0.002467074 -0.0014084255
0000a0 36 9f 79 3b ab 5e 8c 36 cc 89 ab bb 44 00 00 00
       0.0038089282 4.183346e-06 -0.0052349325 9.5e-44
0000b0 90 2a 0d 3b d9 31 93 bb 26 ba d6 ba 89 ce d0 3a
       0.0021540262 -0.0044920263 -0.0016382381 0.0015930693
0000c0 28 23 4b 3b c4 64 64 b9 be 12 79 3d 0e 3e 26 ba
       0.0030996297 -0.00021781313 0.06080889 -0.00063416443
0000d0 47 59 a8 3c 0c c2 cb bc 2d 3f d4 bc 00 05 00 80
       0.020550383 -0.024872802 -0.02590903 -1.794e-42
0000e0 00 17 64 3d c4 4c 32 bd 3b b5 d4 3b 87 b0 6c 3b
       0.055685997 -0.04353024 0.006491331 0.003611596
0000f0 4a e2 9e 3a b8 75 bb 3a 53 46 f1 bc 38 12 69 3b
       0.0012121883 0.0014302051 -0.029452479 0.0035563838
000100 0a c2 85 bc aa 8d 39 ba 8a 03 00 80 9c 2f 8c 3b
       -0.016327877 -0.00070782995 -1.27e-42 0.0042781364
000110 ca 27 25 bb 52 33 9f 3a f4 42 78 bc 5e 1f 6c bb
       -0.0025200718 0.0012146032 -0.015152682 -0.0036029438
000120 5a d3 34 ba fc 3f 91 3c f1 fc d9 bb 12 73 c6 3b
       -0.0006897949 0.017730705 -0.0066524674 0.006056198
000130 7f a2 ff bc 9a 74 6e 3c 20 03 00 00 45 c6 ea 3b
       -0.031205414 0.014554167 1.121e-42 0.007164749
000140 64 af ca bc 13 b1 1c 3c e7 72 03 bb c4 0c 56 3b
       -0.024741836 0.009563702 -0.00200575 0.0032661417
000150 3f 90 1b bc 8e 69 c2 3a c0 92 45 39 ee 02 a8 ba
       -0.00949484 0.0014832483 0.00018842053 -0.0012818256
000160 94 86 78 bb e0 01 00 00 53 13 b7 bb 55 9e f4 bb
       -0.0037922012 6.73e-43 -0.0055870204 -0.0074651637
000170 50 00 00 80 4a 00 00 00 b5 06 00 80 9f 05 00 00
       -1.12e-43 1.04e-43 -2.406e-42 2.016e-42
000180 30 01 00 00 d0 04 00 00 eb 04 00 00 7a 03 00 80
       4.26e-43 1.726e-42 1.764e-42 -1.247e-42
000190 57 03 00 80 ad 05 00 00 45 02 00 80 77 03 00 00
       -1.198e-42 2.036e-42 -8.14e-43 1.243e-42
0001a0 e0 05 00 00 93 01 00 80 06 00 00 80 ea 05 00 80
       2.108e-42 -5.65e-43 -8e-45 -2.122e-42
0001b0 46 07 00 00 a1 01 00 00 16 05 00 00 ca 05 00 80
       2.609e-42 5.84e-43 1.824e-42 -2.077e-42
0001c0 77 04 00 80 79 05 00 00 6e 01 00 80 98 4f 24 3d
       -1.602e-42 1.963e-42 -5.13e-43 0.04011497
0001d0 b5 7b b6 3b e4 8b bc bb 50 f7 8a 3c 0d e1 8f bc
       0.0055689462 -0.005753981 0.01696363 -0.017563367
0001e0 19 4e 54 bc 49 fd b8 3b b6 25 58 bb 63 03 cf 3b
       -0.012958073 0.0056454283 -0.0032981462 0.0063175424
0001f0 68 00 00 00 45 75 b9 bb cb e1 1e 3d 82 61 df 3b
       1.46e-43 -0.0056597316 0.03878955 0.0068170438
000200 b9 d3 82 bb 1a cf b7 bb f9 87 9e bb 46 cc 08 3d
       -0.0039925245 -0.005609405 -0.0048379865 0.033397935
000210 b4 33 9e bb cd 5e 26 3c 3e e6 9f bc 3d 06 00 80
       -0.004827941 0.010154438 -0.019518968 -2.238e-42
000220 63 58 12 bc f7 55 38 3c 36 0d 1d 3c 6e 86 2c bb
       -0.008932206 0.011250964 0.009585669 -0.0026325244
000230 90 f6 0c 3b 47 81 7c bc b8 9e 5f bc d3 48 03 3b
       0.0021509267 -0.0154116815 -0.013648681 0.002003242
000240 c6 a7 e5 bb 36 a8 73 3a 12 bf cc b8 dc 05 00 00
       -0.0070085255 0.000929478 -9.763068e-05 2.102e-42
000250 cb c0 d3 3c 58 39 f5 bb b9 54 1e bb b4 17 53 3b
       0.025848767 -0.0074836425 -0.0024159385 0.0032210173
000260 4d cb 3d 3a bd a6 8e 3a 66 cf 5c bb 82 12 d9 3a
       0.0007240072 0.0010883432 -0.0033692955 0.0016561302
000270 c6 a3 bb 3b fd 57 48 3a c6 03 00 00 50 e6 90 3b
       0.0057263104 0.0007642506 1.354e-42 0.0044219866
000280 07 f6 02 bb 7b cf d9 3b c4 af c9 3c 12 44 2c 3d
       -0.001998307 0.006647048 0.024619944 0.042057104
000290 3a dc e1 3c ec 42 20 3b 60 98 ad bc 25 3b c2 3a
       0.027570833 0.002445395 -0.021190822 0.0014818652
0002a0 ec 09 be 3c ae 3a 82 bb 04 06 00 00 d0 8a f9 3b
       0.02319809 -0.0039742803 2.158e-42 0.0076154247
0002b0 33 83 6a 3c aa 47 b1 bc 1b 62 7e ba f2 b6 be bc
       0.014313507 -0.021640617 -0.000970395 -0.023280594
0002c0 dc eb 1f 3d 9b fe 86 bb 22 aa 53 bb e5 09 93 3b
       0.039043292 -0.004119707 -0.0032297452 0.0044872635
0002d0 6e 19 bf 3c 28 06 00 80 92 78 04 3d bd 68 ee 3c
       0.023327556 -2.208e-42 0.032341547 0.029102677
0002e0 44 a2 25 bb 63 54 90 b9 99 fa cb bb 25 c6 a6 3b
       -0.002527372 -0.00027528693 -0.006224942 0.0050895386
0002f0 76 63 1d bc 1a 59 8a bb 73 70 a0 ba 8a 4e 0c 3c
       -0.009606233 -0.0042220475 -0.0012240544 0.008563647
000300 54 59 88 bb 87 02 00 80 4b 3a 6a bc 72 8f f1 3c
       -0.0041610394 -9.07e-43 -0.014296125 0.029487345
000310 f9 0f 34 bc 25 d1 b1 3a 4a f3 3b 3b b4 c0 45 bb
       -0.010990136 0.0013566358 0.0028678947 -0.0030174674
000320 c6 50 9b ba 3b 05 3e 3b b0 c5 e6 3a 9c 39 4c ba
       -0.0011849634 0.0028994817 0.0017606523 -0.0007790567
000330 75 05 00 00 0f f8 b0 3a b4 d1 56 3b e7 a5 c2 3b
       1.958e-42 0.0013501662 0.0032778801 0.0059401873
000340 5b 46 18 3d 10 79 e7 bc 60 b0 05 bc 1b eb 37 3b
       0.03717647 -0.02825597 -0.008159727 0.0028063718
000350 25 9d 83 bc b9 ed 7f ba 57 7b 8b bc 62 fc d4 3c
       -0.016066143 -0.00097629015 -0.017026586 0.025999252
000360 cc 05 00 00 db 90 d7 bc 86 11 ff bc 80 2d 96 3c
       2.08e-42 -0.02631419 -0.031136286 0.018332243
000370 26 52 63 bb 96 39 9e 3a a9 77 a8 bc a1 79 73 ba
       -0.0034686415 0.0012071605 -0.02056487 -0.00092878385
000380 ad 28 36 3c 0b ff 55 3c f5 e6 0d bc 29 00 00 00
       0.011118096 0.013061295 -0.0086610215 5.7e-44
000390 84 1d 87 bb a4 ca f1 ba 18 50 3d 3b e4 05 c6 3c
       -0.0041233916 -0.0018447232 0.002888685 0.02417273
0003a0 70 99 38 3c 3a b1 95 bb 87 78 51 bc 2f b0 39 bc
       0.011267051 -0.004568246 -0.012785084 -0.011333509
0003b0 87 e1 21 bc 2a b9 5e 3b e9 33 8b bb 14 06 00 80
       -0.00988043 0.0033984878 -0.0042481315 -2.18e-42
0003c0 1b 01 60 3b 66 26 2c bc 4b cf 63 ba ac fa 13 3c
       0.0034180346 -0.010507202 -0.0008690252 0.009031933
0003d0 f3 19 70 b9 34 86 23 3c 3b 4c 81 bc 02 f1 8d bc
       -0.0002289785 0.009980727 -0.01578342 -0.017326836
0003e0 c9 b3 cf bc a2 be d2 bb 36 02 00 00 44 c7 00 3c
       -0.025354283 -0.0064314166 7.93e-43 0.007860009
0003f0 32 0a be 3b 6f 14 59 3c 6c fb b3 3b 13 bf ed bb
       0.005799555 0.013249501 0.0054926183 -0.007255444

stage1.0.conv1x1.bns.0.weight f4 [13]
000000 3f 9e 17 3c b7 76 88 3b 06 aa b3 3c c9 b9 25 3c
       0.009254037 0.0041645425 0.02193166 0.010115095
000010 56 04 2a 29 c4 b6 c6 3b 8b 57 04 3c e9 a0 74 3b
       3.7751344e-14 0.006064268 0.0080775125 0.0037327355
000020 1a 21 f4 3b 8e e7 eb 3b a7 44 eb 3c 40 06 97 3c
       0.007450235 0.0071992343 0.02871926 0.018435597
000030 f0 28 04 3c
       0.008066401

stage1.0.conv1x1.bns.0.bias f4 [13]
000000 4c 0d b2 3b cf c0 f4 3b cb 31 c6 3b 87 96 87 bc
       0.005433714 0.0074692736 0.0060484163 -0.01655127
000010 a1 01 00 00 e3 a9 e0 3b ee a5 86 3b e2 b2 0a 3c
       5.84e-43 0.0068561896 0.004109136 0.008465501
000020 10 9d a8 3b 7f 64 e3 3b a3 e5 be bb 1b a3 19 3b
       0.0051456764 0.0069394703 -0.0058257147 0.0023443166
000030 80 09 37 3b
       0.0027929246

stage1.0.conv1x1.bns.0.running_mean f4 [13]
000000 cb 0f e6 3a 65 ee 41 b9 25 c3 bd b9 9b 74 8a ba
       0.0017552314 -0.00018494723 -0.00036194283 -0.0010563316
000010 23 00 00 00 47 5f b4 3a 13 2b 1b b9 74 b3 4c 3b
       4.9e-44 0.0013761305 -0.00014797998 0.0031234892
000020 30 ad 39 39 65 bb cc ba 94 4a ba b8 d2 bb 03 b9
       0.00017707492 -0.0015619813 -8.8830624e-05 -0.00012563102
000030 2a 96 a5 39
       0.00031583133

stage1.0.conv1x1.bns.0.running_var f4 [13]
000000 0b b4 8c 35 89 14 67 34 a4 71 22 36 5c 0c 1c 35
       1.0483212e-06 2.1521022e-07 2.4206029e-06 5.8132514e-07
000010 04 00 00 00 75 47 64 35 95 9a ee 33 b4 e0 07 36
       6e-45 8.50406e-07 1.1110857e-07 2.0247362e-06
000020 ed 7f 8f 34 6b e9 a9 35 fa ab ef 34 d3 3a 91 35
       2.6728904e-07 1.2659415e-06 4.4642348e-07 1.0820462e-06
000030 cf a4 29 35
       6.3197234e-07

stage1.0.conv1x1.bns.1.weight f4 [12]
000000 f1 8f aa 3b 85 64 f5 3b 45 31 fe 3b 59 8b 0c 3c
       0.0052051474 0.0074887895 0.007757338 0.008578145
000010 17 c8 63 3c 37 fa af 3c 2b 8f c4 3c ff fc b9 3b
       0.013902686 0.021481616 0.023994049 0.0056759114
000020 3f 48 24 3c f1 56 eb 3b e8 87 37 3c 39 d3 20 3c
       0.01002699 0.007181995 0.011201836 0.009815984

stage1.0.conv1x1.bns.1.bias f4 [12]
000000 56 0a ab 3b 30 95 bc 3b 8d a8 b1 3b 17 b3 6e 3b
       0.005219738 0.005755089 0.005421704 0.0036422664
000010 e9 d1 96 3b 06 e6 02 bb 7c f3 98 bc d3 bb 9c 3b
       0.00460266 -0.001997353 -0.01867079 0.0047831326
000020 a7 73 c3 3b 7f b4 11 3c a5 96 f9 3b d8 73 c9 3b
       0.0059647146 0.008893131 0.007616835 0.006147843

stage1.0.conv1x1.bns.1.running_mean f4 [12]
000000 77 bf 0f 3b aa 62 d3 39 17 6c 2a 3a 07 87 75 ba
       0.002193419 0.00040318567 0.0006501092 -0.0009366129
000010 ef c7 ca ba ec 47 2b bb 85 56 99 ba a0 78 4a 39
       -0.0015470962 -0.0026135398 -0.0011698758 0.00019309158
000020 e6 d7 d5 38 ec 86 3e bb 08 6a 03 3a 22 eb 1f bb
       0.00010196846 -0.002907212 0.00050130533 -0.0024401625

stage1.0.conv1x1.bns.1.running_var f4 [12]
000000 5e eb 1c 35 9e eb 90 35 1d b2 14 35 e1 61 23 35
       5.8457033e-07 1.079741e-06 5.5393485e-07 6.0864664e-07
000010 27 72 26 36 84 68 c4 35 e0 d2 8f 35 db 20 91 34
       2.4802373e-06 1.4633556e-06 1.0715703e-06 2.703226e-07
000020 84 0a 6b 35 37 44 2d 35 d1 e6 a9 35 d4 e3 ee 34
       8.7559624e-07 6.454679e-07 1.2658658e-06 4.449672e-07

stage1.0.conv1x1.prelus.0.weight f4 [13]
000000 2b e6 87 b8 72 bc 86 ab 18 37 7f 3b ad 5f 0a 3d
       -6.480174e-05 -9.573577e-13 0.003894275 0.03378265
000010 2e 03 00 80 93 5c 9b 38 ba 9a 2b 37 4f a5 22 a6
       -1.14e-42 7.408219e-05 1.0228419e-05 -5.6429076e-16
000020 66 de 70 b8 f6 f6 88 37 08 1f 17 3d ab fa ff bb
       -5.7427584e-05 1.6327464e-05 0.036894828 -0.0078118644
000030 3f 8c e2 b8
       -0.00010802643

stage1.0.conv1x1.prelus.1.weight f4 [12]
000000 92 05 00 80 ae ec a8 37 9c 45 3f b8 99 a8 5f b8
       -1.998e-42 2.0137373e-05 -4.5602777e-05 -5.3324362e-05
000010 18 5f 3a 3a b6 8d 8e 3b 30 0f 08 3d 90 91 c9 b6
       0.0007109507 0.0043503894 0.03321761 -6.0072125e-06
000020 13 41 af 37 d5 9b 1f 38 ae 30 5b b8 b2 2c 6e 38
       2.0891928e-05 3.8053684e-05 -5.2259005e-05 5.6785248e-05

stage1.0.conv3x3_1.convs.0.weight f4 [13, 1, 3, 3]
000000 35 55 51 ba 74 a4 2b bc 95 b4 29 bc b4 39 27 3a
       -0.0007985414 -0.01047622 -0.0103579955 0.0006379143
000010 88 a2 9a bc 2a 66 a1 bc 66 49 32 3c 61 fa 6d 37
       -0.018876329 -0.019702036 0.010881757 1.4184597e-05
000020 75 64 8b 3c 92 98 6c 3c c5 e4 da ba 87 be 10 3c
       0.017015675 0.0144406725 -0.0016700259 0.008834488
000030 3e d6 f8 bb 33 f3 04 bd e8 2e 74 bb d4 48 05 bc
       -0.007593899 -0.032458495 -0.0037259404 -0.008135039
000040 e3 e9 c0 3c 12 27 31 bc 05 64 ca 3b 4f 16 8e bc
       0.023549026 -0.010812538 0.006176474 -0.017344622
000050 41 22 43 bb 68 a1 2b 3b e3 73 ca bc c3 4c 18 bc
       -0.0029775056 0.0026188735 -0.024713462 -0.009295645
000060 44 92 7b bc ba 2e fc bc 82 ca 85 bc ce b7 29 3c
       -0.015354697 -0.030784 -0.016331915 0.010358764
000070 4d df 6d bb 83 bf 4b 3c 78 17 35 bc 73 dd 18 bd
       -0.0036296428 0.012435797 -0.011052959 -0.037320565
000080 6f be 70 bc 9b 11 3a 3c 1d a7 8a bc a5 75 3e bb
       -0.01469384 0.0113567365 -0.016925389 -0.002906182
000090 be 04 00 80 b9 02 00 80 83 03 00 00 4c 06 00 00
       -1.701e-42 -9.77e-43 1.26e-42 2.259e-42
0000a0 cf 00 00 00 b2 04 00 80 fe 05 00 00 68 01 00 00
       2.9e-43 -1.684e-42 2.15e-42 5.04e-43
0000b0 3c 03 00 80 10 32 76 3c a8 2c a5 3b 15 f5 c2 3c
       -1.16e-42 0.015026584 0.005040724 0.023798505
0000c0 06 1d a0 3b b6 f3 81 3c 32 45 12 bd 0a 43 a9 3b
       0.0048862724 0.01586328 -0.03571052 0.0051654624
0000d0 e1 6d db 3c 39 40 87 bc b6 d1 a5 3b 06 62 ba ba
       0.026785793 -0.016510116 0.0050604 -0.0014219887
0000e0 fc 69 f8 b9 49 bb bc 39 3e 24 8d bc 19 f3 81 3c
       -0.0004738121 0.00035997693 -0.017229196 0.015862988
0000f0 4a 08 6e 3c 5f 7d 4a ba e0 2c ef bc e0 3e 86 3c
       0.014528343 -0.000772437 -0.029196203 0.016387403
000100 76 02 f0 3c fb dc d6 3b a1 a7 18 3d 49 04 8d 3c
       0.029298048 0.0065571046 0.03726924 0.017213957
000110 87 a6 1d bd 07 03 3b bd 57 e9 98 3c 46 49 9e 3c
       -0.03848889 -0.045657184 0.018665953 0.019322049
000120 5b dc 72 3c 2b 59 3b bc 6c 3c 92 3c 7c 9e 7e 3c
       0.014823045 -0.0114348335 0.017851077 0.015540715
000130 40 ae c6 bc 7d ae 24 bc ea ed c5 3b 80 04 a7 bb
       -0.02425301 -0.010051367 0.0060403245 -0.005096972
000140 c1 82 31 3c 2d 35 a3 bb 4b 83 f9 3c 30 1d cd 3c
       0.010834397 -0.0049807043 0.030458113 0.025038332
000150 6e d5 8f bc 00 8e ed bc 40 f3 3d 3d a6 af 2d ba
       -0.017557826 -0.028998375 0.04637456 -0.00066256
000160 f1 1f ab bb 9d 4a 80 3c e5 89 1e 3c 4a 5a e9 3b
       -0.0052223136 0.015660578 0.009676431 0.007121359
000170 69 59 bb 3b 7f 93 16 bb 61 57 0a bc 7b ab 61 bc
       0.0057174456 -0.0022976098 -0.008443684 -0.013773794
000180 91 8e d8 bb 38 2e 49 bc fa 83 9d bc c4 df 0d bc
       -0.006608792 -0.012279086 -0.01922797 -0.008659307
000190 75 dd 5e bb 66 ca 9f bc 0f 98 e5 bc 7b 3c 91 3c
       -0.003400651 -0.01950569 -0.028026609 0.017729035
0001a0 a3 4a 20 3c d6 88 61 bc a1 72 a9 3c 98 07 fe 3c
       0.00978342 -0.013765534 0.020684542 0.03100948
0001b0 0d 9a 23 bb ce dc 3f 3c 7c b6 fb 3b 6f 9c 8c bc
       -0.0024963648 0.011710359 0.007681666 -0.017164437
0001c0 4c a4 4e 3a df 41 d4 3c 1e 40 82 bb 3b 2f 0d 3c
       0.00078827585 0.025910316 -0.0039749285 0.008617218
0001d0 4d a1 e2 3b
       0.006916201

stage1.0.conv3x3_1.convs.1.weight f4 [12, 1, 3, 3]
000000 4a f5 35 bc 75 a2 0a 3c b1 8b 6f bb 51 28 1e 3c
       -0.011105845 0.008461584 -0.0036551768 0.009653167
000010 60 3b 95 3c 89 e3 3a 3a 35 b2 2a ba 15 30 31 3c
       0.018216789 0.00071292423 -0.000651154 0.010814686
000020 cf 18 3f 3c f4 95 28 bc 58 b3 94 bb a9 4e 16 bc
       0.01166363 -0.010289658 -0.004537981 -0.0091740275
000030 1f bd be bb f5 d8 a8 3c cc 14 66 3c b7 33 da ba
       -0.005820885 0.020611266 0.014043044 -0.0016647492
000040 bd 93 63 3c fc 2c b4 3c 7c 0d 4f 3c a6 0f b2 3b
       0.013890204 0.021994106 0.012637492 0.0054339943
000050 1d 91 84 3c f5 9a aa 3b a2 28 43 bc 5d eb e8 bb
       0.016182477 0.0052064606 -0.011911543 -0.0071081356
000060 e4 03 f7 3b e0 e1 82 bc dd e0 31 bc da 8e 8e 3b
       0.0075383056 -0.015976846 -0.010856834 0.0043505253
000070 ff bc 14 bc 37 bc 1b bc 11 ed d8 bb 70 26 b0 3c
       -0.009078263 -0.009505323 -0.0066200574 0.021502703
000080 a9 18 9a 3c bd 22 0e 3b 6d 35 f4 3c 51 df 9d 3c
       0.018810587 0.0021688186 0.029810632 0.019271525
000090 56 67 85 bc 15 73 b5 3c 33 9b e3 3c 73 7e 8f ba
       -0.016284626 0.022149602 0.027783966 -0.0010947719
0000a0 22 41 bc 3c 9f 66 43 3b 3e ff 72 bc 44 72 f0 3b
       0.022980276 0.0029815806 -0.014831362 0.0073378403
0000b0 91 b4 35 bc de d3 83 3c 6f 02 1a 3c bc e1 80 3c
       -0.011090414 0.016092237 0.009399994 0.015732639
0000c0 a8 a7 41 bb 5d ca 0a bc 94 f9 60 3c 4e ee c6 bc
       -0.0029549394 -0.008471099 0.013731379 -0.024283554
0000d0 56 75 83 bc cc 81 7d ba fb ba 80 bb 1f b5 0e bd
       -0.016047161 -0.00096705253 -0.00392854 -0.0348407
0000e0 1f e2 df bc 12 1a 31 3c 82 1e 1e 3b 89 35 5c 3b
       -0.027329503 0.010809438 0.002412707 0.0033601245
0000f0 5e aa fb 3b 8d b1 2e 3c 03 39 7a 3c 9c 5f 37 3c
       0.0076802215 0.010662449 0.015272382 0.011192229
000100 5f 2f 6e 3c 9c ed 32 3b a5 bd b9 3c 8b eb 86 3c
       0.014537661 0.002730227 0.022673437 0.016469738
000110 c6 5e a3 bc 10 05 55 bc ef 44 dd 3a 92 81 14 3b
       -0.019942652 -0.013001695 0.0016881506 0.0022660238
000120 9c f2 86 bb 86 ac de b8 e3 1f 61 bc db d5 5b 3c
       -0.0041182768 -0.0001061792 -0.013740513 0.013417686
000130 35 28 85 bb 7b 6f 99 bc 07 95 ff 3c 71 c6 88 3b
       -0.004063631 -0.018729916 0.031198991 0.0041740467
000140 98 bb 22 bc 32 f8 71 bb 8a 14 0f bc 86 35 3b bc
       -0.009932421 -0.0036921618 -0.008732924 -0.011426335
000150 29 e1 26 ba ee 70 aa 3c d4 14 f7 3b e1 8b 3d bc
       -0.0006365949 0.020805802 0.0075403247 -0.011568994
000160 ea c8 d8 3c b7 9b 79 3c 24 1d cb 3c af c6 e8 3c
       0.02646299 0.015234879 0.024794169 0.028415052
000170 85 93 d1 bc 56 bc 38 3c 80 10 22 3d 11 67 31 bd
       -0.025583038 0.011275372 0.039566517 -0.043311182
000180 ed 47 15 bc 5d fe 9f 3c e8 3b 40 bd 70 41 57 3c
       -0.009111387 0.01953047 -0.04693213 0.01313816
000190 39 70 7f bb 68 0c 94 bc cc 5b a4 3c a4 6e bc 3b
       -0.0038976802 -0.018072322 0.020063303 0.005750494
0001a0 f8 a3 13 bc 75 8e 71 3c f2 10 be ba 55 7b 4e bb
       -0.009011261 0.014743437 -0.00145009 -0.0031506617

stage1.0.conv3x3_1.bns.0.weight f4 [13]
000000 6f 88 2a 3c 71 d3 a6 3b 86 16 5d 3c 5a 09 6c 3c
       0.010408505 0.0050911237 0.01349414 0.014406526
000010 1f 20 95 22 a5 67 00 3c 10 a8 e4 3b bf 98 ba 3b
       4.042054e-18 0.007837211 0.0069780424 0.0056944783
000020 cb 6c 0c 3c 22 d0 09 3c a5 3e 41 3c 56 0e 2f 3c
       0.00857086 0.008411439 0.011794721 0.01068457
000030 3b eb 10 3c
       0.008845146

stage1.0.conv3x3_1.bns.0.bias f4 [13]
000000 4a e4 c9 bc a2 51 2a 3c e9 e2 3c 3a 6b 2b 83 3b
       -0.02464499 0.010395439 0.0007205443 0.0040029786
000010 36 03 00 80 d2 98 3e 3c 4e 8a c6 3b 86 71 80 3c
       -1.152e-42 0.011633115 0.0060589677 0.015679132
000020 8c 86 c6 3b d2 2a 1a 3c 06 92 45 3a 8e d2 04 3c
       0.0060585197 0.009409623 0.0007536713 0.008106841
000030 81 6a ca 3a
       0.0015443118

stage1.0.conv3x3_1.bns.0.running_mean f4 [13]
000000 12 33 8d bc 6f 14 58 bc d3 c7 9b bd 99 3e 40 3b
       -0.017236266 -0.0131884655 -0.07606473 0.0029334186
000010 00 00 00 00 a2 11 f8 3c 33 c7 b3 bb cc 4c 51 3d
       0.0 0.030281845 -0.005486393 0.05109863
000020 7e e7 ea 3b f3 21 29 3d 5a d8 1f ba 84 49 13 3b
       0.0071687093 0.041292142 -0.00060976075 0.0022474239
000030 88 a2 35 3c
       0.011086114

stage1.0.conv3x3_1.bns.0.running_var f4 [13]
000000 0d e2 c0 38 ac c8 bd 36 bc 33 89 3b aa 87 5e 34
       9.197379e-05 5.656e-06 0.0041870754 2.0724715e-07
000010 04 00 00 00 e7 57 b2 38 04 c7 18 37 0c 83 d8 38
       6e-45 8.5040745e-05 9.106243e-06 0.00010324092
000020 21 61 de 37 3e 7f 9b 39 a1 e5 2f 38 d9 81 a3 39
       2.6509691e-05 0.00029658707 4.193711e-05 0.00031186527
000030 71 60 35 38
       4.324358e-05

stage1.0.conv3x3_1.bns.1.weight f4 [12]
000000 ea 31 04 3c 47 e5 a8 3b 60 56 c3 3b 0f 03 07 3c
       0.008068541 0.005154285 0.0059612244 0.008240475
000010 a5 3d 35 3c 60 96 f6 3b 54 02 4e 3c fb 6e b8 3b
       0.0110620605 0.0075252503 0.012573797 0.0056284643
000020 e4 cd a6 3b a7 29 22 3c df 45 9f 3b 08 7e 3e 3c
       0.005090462 0.009897626 0.004860624 0.011626728

stage1.0.conv3x3_1.bns.1.bias f4 [12]
000000 ae 66 12 3b 14 d9 1b 3c 7a 70 ee 3b 79 06 82 3b
       0.0022339034 0.009512205 0.007276592 0.0039680568
000010 15 81 0d 3c 1c 46 fd 3b 01 4e 90 3b a6 cb d5 3b
       0.008636733 0.007729305 0.00440383 0.006524521
000020 73 f5 eb 3b 9e 95 b6 3b 75 4a 39 3c f7 9b 8f bb
       0.0072008907 0.005572035 0.011309256 -0.004382606

stage1.0.conv3x3_1.bns.1.running_mean f4 [12]
000000 1d 6c bb 3c f2 ed b7 3c 2c e1 d3 39 34 fc d9 3c
       0.0228787 0.022452328 0.00040412822 0.026609518
000010 8e 29 b9 3c 77 17 86 39 b0 4a 7d 3a d4 a6 95 3c
       0.022602823 0.00025575954 0.00096623134 0.018268026
000020 87 13 98 ba 97 b5 f7 3c bd b0 a5 b9 ce ae 35 3c
       -0.0011602499 0.030237956 -0.00031602933 0.01108904

stage1.0.conv3x3_1.bns.1.running_var f4 [12]
000000 56 c7 ea 37 46 a9 ca 38 7e 4a 49 37 4d ac cc 38
       2.7987797e-05 9.66364e-05 1.1997878e-05 9.7595715e-05
000010 63 36 91 39 87 b1 25 38 14 68 21 35 55 2f 9e 37
       0.00027697076 3.95044e-05 6.012863e-07 1.8857108e-05
000020 99 91 52 38 1d 0f 82 38 77 d4 8d 39 a2 af 33 38
       5.02035e-05 6.201698e-05 0.00027051914 4.2840496e-05

stage1.0.conv3x3_1.prelus.0.weight f4 [13]
000000 f5 6a 39 3d 09 42 98 38 55 8c 90 bb 0a 20 4e 3a
       0.045268018 7.260225e-05 -0.00441126 0.00078630506
000010 bf 01 00 00 0f 6f 10 3a f4 ec e8 39 54 2f 05 37
       6.26e-43 0.0005509713 0.00044427032 7.938437e-06
000020 78 06 cf 3a c9 5d 8c 3a 55 47 76 ba 29 08 8a 3b
       0.0015794775 0.0010709102 -0.00093947846 0.0042123985
000030 84 ce 99 39
       0.000293363

stage1.0.conv3x3_1.prelus.1.weight f4 [12]
000000 84 65 f9 b8 4e c9 4b 38 47 7e 02 38 8c 09 c8 3a
       -0.00011892154 4.858645e-05 3.111202e-05 0.0015261634
000010 81 62 60 3b 6d 15 19 3a 84 dd ba ba b6 77 07 b8
       0.00342384 0.00058396795 -0.0014256691 -3.2297998e-05
000020 7f 49 8c b9 33 20 89 3b ad fc 19 b9 6f ac ce 3a
       -0.0002675764 0.0041847466 -0.00014685346 0.0015767942
